timothe/models/decoder.pth (torch, 184937 bytes, 17 tensors)

decoder_lin.0.weight f4 [128, 12]
00000000: 541d 673d 54af 103d e86a 063e f6cd 01be
00000010: 06f5 7d3d 2a03 763d 5055 4e3e 01c6 653d
00000020: 7e9a df3d d829 d7bd 24de d3bc 64f6 113d
00000030: 0e24 db3d 8c48 3ebd caf0 833d 270a 733e
00000040: 4bf0 06be 0a37 f83a b70f 23be 5c40 b9bc
00000050: 3982 dcbd f796 e33d 46b4 dc3c 57b9 613e
00000060: 6481 233e 078d 993c 5927 9a3d 8af4 79bb
00000070: 2065 10be 1717 113d df6c 61be d7d9 0cbe
00000080: eaf4 743c 8748 2b3e cdfc e1bd d1ca 323d
00000090: 2730 f93d 42f9 143d 55ed ef3d 271d 8bbd
000000a0: a820 dfbc 86ef 90bd 2674 42bd c05f c9bc
000000b0: bad2 1fbd 8bc8 b7bd 9a6f 32bd 6cf7 81ba
000000c0: e1f4 3f3d dd9a fabd 00d9 3e3e a113 69bb
000000d0: 0f95 30be 8a15 9abd 51c8 fe3d d99b 17be
000000e0: 68d5 31be 8f5b 05be 583b b93d dbff 22be
000000f0: 70e6 83bc 64b3 b5bc 3231 533e 8352 9dbd
00000100: 1f9e 0ebd bc43 3cbd 4960 08be f9b7 2d3e
00000110: 86e0 d73d 2ba2 113d 2d0b 223c 9cb3 933d
00000120: e2e9 4b3e d379 893d 1dab bdbc 1897 933d
00000130: 9ff5 0dbe 64cc afbd 6fe3 85bd 2fbc 393c
00000140: d570 e6bd baeb 15bd 4cab eabe c91d efbd
00000150: 4ef6 293e d8ff 92bd 702c 193e e35a 50bc
00000160: 7d1a ccbd eb63 43bd 615b e4bc 45a7 553d
00000170: e933 323e f691 08be 7bc1 c8ba 0704 3cbe
00000180: 6d2d 94bd f3e5 743e bbd3 873d da7a 3fbd
00000190: ff26 363e 3a5a e3bd 2298 8dbd 26e0 1f3e
000001a0: 21ec f1bd faa8 3b3e abbf 43bd db2a f63d
000001b0: 100b 85bc 62cb c13d 6f53 c2bd 4825 6e3d
000001c0: 37b2 b13b 8ef1 e3bd caae 34be efe5 eabd
000001d0: 09aa b23d 4875 9bba ed8d 473d 3c5e 1b3d
000001e0: 785e 033e 9277 053e 362f f93d 0842 2e3e
000001f0: 79b2 9f3c 71ab dbbd 8486 253e 2d9b c6bd
00000200: 36a2 3c3d aac0 c1bd e0fc 913d a54b 0ebe
00000210: e685 c03d 3ac2 f7bc 4b92 2abe d261 443d
00000220: f12b 4fbd eed2 093e 4e9b 27bb 6347 ddbc
00000230: 3cb1 3cbb d28f 8a3e 3270 6a3e f58c fe3d
00000240: 0999 3dbc 85e1 803d 0753 4b3e 7b52 223e
00000250: a290 5abb d1df da3a 0aab 133d 622c d13d
00000260: cb02 623e 0479 553e c1fc 3e3d b1d3 5dbc
00000270: bf14 89bd ff34 d4bc faf0 51bd 3722 dd3d
00000280: f348 363a 566f 533d 845a 46bb 492e 863d
00000290: d031 7b3a 49c4 8b3d 67b1 35bd f5e9 70bd
000002a0: 0e1b 0bbe add8 603e 4b87 c33d 311d 09bd
000002b0: e2b0 22be f5b6 bb3d 28f9 10be a9b8 fe3c
000002c0: 1189 2abd e20f 0c3e 0c3b 01bd fd8e 363d
000002d0: 092f 353e 8805 fd3d d12f 423e 15ca 74be
000002e0: 331d eabd cfc0 1b3e 0809 56bd 016f aa3b
000002f0: 8f67 95ba 0567 a3bd 776b 3a3e 62f8 9d3d
00000300: 6793 26be e628 59bd aa87 8f3d 33f3 04bd
00000310: 5104 c83d a45b 05bd 1a66 5f3e efe8 67be
00000320: a523 6fbd b93e c5bd db7c 47be 540c 613e
00000330: 8dad 283d 0594 a33c 490b 99bc a324 b6bd
00000340: ee6c 6a3a c43f 493d a5f9 1ebd d6f6 693d
00000350: 5d80 9ebd 0ea5 0abe ca1d 31bd 768b 88bd
00000360: 066e b5bd 22c1 13be f9d9 39bd 30b8 03be
00000370: eb38 50bd 199d 00be 37cc 07be 49a7 6cbd
00000380: 579d d9bc 3b0f e1bd dc41 b8bd b213 bcbc
00000390: 5fe2 e2bd 4ced ac3c 68da 53bd dafe 3dbe
000003a0: 1aa3 b4bc 0557 123e 5e62 51bd 00de 1cbe
000003b0: 9f22 0cbd 209d 62bd cbee 033e ad22 753d
000003c0: 662f 3abd a13a 98bd ebf9 29be be8c 9c3d
000003d0: aa70 9c3d 9f1f da3d 65fc 8d3d e9b9 c9bd
000003e0: 1a5b ea3b 4558 f63d 16d8 e6ba dd05 f73d
000003f0: 3155 11bd 37ed 3dbc a5e6 083e f461 ca3c
0.056424454 0.035323456 0.13126719 -0.12676224 0.06200125 0.06006161 0.20149732 0.056097034
0.10918139 -0.10506028 -0.02586276 0.035635367 0.10700236 -0.046455905 0.06442411 0.23734342
-0.13177602 0.0018937301 -0.15923963 -0.022613697 -0.107670255 0.11112779 0.02694143 0.22043358
0.15967327 0.018744005 0.07527036 -0.0038140141 -0.14101076 0.03542241 -0.22014187 -0.13754974
0.01495097 0.16726886 -0.11034546 0.043650452 0.121673875 0.036370523 0.11715189 -0.0679267
-0.027237251 -0.070769355 -0.04747405 -0.02458179 -0.039019324 -0.089737974 -0.043563463 -0.0009915656
0.046864394 -0.12236569 0.18637466 -0.0035564678 -0.17244361 -0.075236395 0.12440551 -0.14805545
-0.17366564 -0.13023208 0.09044522 -0.15917914 -0.016101092 -0.022180267 0.20624235 -0.076817535
-0.034818765 -0.045963034 -0.1331798 0.16964711 0.10540871 0.035555046 0.00989036 0.07211992
0.19913438 0.06712689 -0.023152882 0.07206553 -0.13863228 -0.08583906 -0.0653752 0.01133637
-0.1125199 -0.03660176 -0.45833814 -0.11675603 0.16597864 -0.071777046 0.14958358 -0.012716982
-0.0996599 -0.04770271 -0.027875604 0.052161474 0.17402615 -0.1333693 -0.0015316451 -0.18360911
-0.07235227 0.23915844 0.06632181 -0.04674802 0.17788313 -0.11101194 -0.06913783 0.1561285
-0.11812616 0.18326178 -0.04779021 0.12019893 -0.016240627 0.0946262 -0.0948857 0.058141023
0.005422856 -0.11130057 -0.17644802 -0.114696376 0.08723838 -0.0011860514 0.048719335 0.037931666
0.12829006 0.13033894 0.12167208 0.17017376 0.019494282 -0.10726059 0.16164595 -0.09697566
0.046053134 -0.09460576 0.0712831 -0.13896044 0.09400539 -0.030243982 -0.16657369 0.04794485
-0.050579015 0.1345937 -0.0025574747 -0.027011579 -0.0028792163 0.2706285 0.22894362 0.12429229
-0.011572131 0.062930144 0.19855891 0.15851776 -0.0033350368 0.0016698783 0.036051787 0.102135435
0.22071378 0.20846945 0.046627764 -0.013539241 -0.0669341 -0.025904177 -0.051255204 0.107975416
0.00069536193 0.05161985 -0.0030266354 0.06551797 0.0009582313 0.06824548 -0.044358637 -0.05881687
-0.1358454 0.21957655 0.095472895 -0.033475105 -0.15887788 0.09165756 -0.14157546 0.031093912
-0.041634623 0.13677934 -0.031550452 0.044569958 0.17693724 0.123545706 0.18963553 -0.23905213
-0.114313506 0.1521027 -0.052254707 0.005201221 -0.0011398661 -0.07978634 0.18205057 0.07713391
-0.16267167 -0.05301752 0.07008298 -0.032458495 0.09766448 -0.0325581 0.21816292 -0.22647451
-0.058383603 -0.09631104 -0.19481222 0.21977359 0.041181136 0.019968042 -0.018682139 -0.08893707
0.00089426234 0.049133077 -0.0388123 0.057120167 -0.07739327 -0.13539526 -0.0432413 -0.06667225
-0.08858876 -0.14429143 -0.04537389 -0.1286323 -0.05083553 -0.12559928 -0.13261496 -0.057776723
-0.026564283 -0.10989233 -0.08996937 -0.02295861 -0.11078333 0.021109246 -0.05172196 -0.1855425
-0.02205043 0.14291008 -0.0511192 -0.15319061 -0.034212705 -0.055325627 0.12884061 0.059847523
-0.04545536 -0.074330576 -0.16599242 0.07644032 0.076386765 0.106505625 0.06932906 -0.09849913
0.0071519734 0.12028555 -0.0017612006 0.12061665 -0.035481635 -0.011592201 0.13369234 0.02470491

decoder_lin.0.bias f4 [128]
00000000: f822 153e 3b97 4c3c 1636 1d3d 1d8e d23d
00000010: ab20 663d a7df c23c e22a 8fbd 62f5 bfb9
00000020: f355 98bc 83fc 183e 66aa 48bc 6de6 adbd
00000030: 97f4 edbc 7d39 613d 97d3 b93d 2862 58bd
00000040: f1e3 363d 7f35 923d 4f31 323e 49b6 643d
00000050: a953 583e 8de2 e5bb 89a9 c83d 50b6 ca3d
00000060: 0191 fe3c 6810 21be 2c04 7b3d 0d03 4cbd
00000070: 5f90 83bd b6fb 6b3d 38a4 223c 5785 abbc
00000080: d4f7 27bc d82c 043e aa51 de3c e610 1bbe
00000090: 3ecb 973d 52d4 013e c832 663d 1965 b43d
000000a0: fcff ae3d bab3 663c 5459 54bb 2015 343c
000000b0: d6be 05be 8826 d9bd 8196 b8b9 d13b fb3d
000000c0: 0a07 4f3d eddd babd 14d4 783d 11a6 d13d
000000d0: 5726 3ebd 6fd9 853d 29b4 47bd f776 2d3d
000000e0: 8662 843d 75d6 d33d 577e ee3d 36fb 0e3e
000000f0: 875e a1ba bd23 613e ca53 b1bc b0e8 873d
00000100: 2d66 1b3d 013a 013d 1bec 103c 0e3b f23d
00000110: e9ea 463a ec6f bdbc 6805 28bd 8c25 4b3d
00000120: 1986 14bd d225 203d bea5 5d3d ed73 f2bc
00000130: 2fd5 093e 84d1 eabc 8b41 caa2 37ef d23d
00000140: a818 693e f1b4 983c 7e25 c3bb 2581 d53d
00000150: 98b8 92bb 5112 1abc 5988 9db7 e2c9 bebd
00000160: 03d6 4fbd e356 46be 7c93 13be f8bb 3bbb
00000170: 40ed b4bc 342c dc3d 961b 203d 7b10 0e3e
00000180: f76e 4c3e de1e 843d 6faf 473d 66e0 b13d
00000190: bb47 e83d 184a c43d fce5 1abd bdb7 113d
000001a0: a395 98b7 ab5c 303e c7d8 17be 38a5 a8bd
000001b0: 0a12 ee3d 5b54 08bc d16b 923c 7489 423d
000001c0: fce7 c3bd 8138 84bd 5e4c 0f3e d9e2 c93d
000001d0: a1a9 2d3e 812c 923d 1d94 173d a551 2d3d
000001e0: 667f a73d 838e c73b e0c3 053e 848b 273d
000001f0: 958c 013e f7f9 92bc 3491 a53d c016 34bc
0.14564121 0.012487228 0.03838166 0.10281012 0.0561835 0.023788286 -0.06990601 -0.00036613183
-0.018595671 0.14940076 -0.012247657 -0.08491216 -0.029047294 0.054986466 0.09073561 -0.052827984
0.044650976 0.0713911 0.17401622 0.055837903 0.21125664 -0.0070155323 0.09797961 0.098980546
0.031075003 -0.15728915 0.061283275 -0.049807597 -0.06424021 0.057613097 0.009926848 -0.020937605
-0.010251958 0.12907732 0.02713855 -0.15143165 0.07411812 0.1267865 0.056200773 0.08808345
0.08544919 0.014080936 -0.0032401877 0.010991365 -0.1306108 -0.106030524 -0.0003520735 0.122672684
0.050543822 -0.0912436 0.06074913 0.10236753 -0.046423282 0.06535613 -0.0487558 0.04234978
0.06464104 0.10343639 0.11645191 0.13963017 -0.0012311497 0.2198629 -0.021646399 0.066361785
0.03793924 0.031549457 0.008845354 0.1182767 0.0007588105 -0.023124658 -0.04102078 0.049596354
-0.036260698 0.03909857 0.054113142 -0.029596293 0.1346023 -0.028664358 -5.4821606e-18 0.10299533
0.22763312 0.018640967 -0.005955397 0.10425023 -0.0044775717 -0.009403781 -1.877935e-05 -0.0931585
-0.050741207 -0.19369082 -0.1441173 -0.0028645974 -0.022085786 0.107506186 0.039088808 0.13873474
0.19964205 0.064512 0.04875129 0.08685379 0.113418065 0.09584445 -0.037816986 0.035575617
-1.8189492e-05 0.1722285 -0.14828788 -0.08234638 0.116245344 -0.008320893 0.017873676 0.047494367
-0.09565732 -0.0645609 0.13993976 0.09857721 0.1695924 0.07137395 0.037006486 0.04231419
0.08178596 0.006089987 0.13063002 0.040904537 0.12651284 -0.017941458 0.08084336 -0.010991752

decoder_lin.2.weight f4 [288, 128]
00000000: b038 dc3c f869 91b9 06a0 f6bd 931f eb3c
00000010: 6b5c 7cbd c47b b63c e94f 54bd c233 0e3d
00000020: c3c2 ee3a 3574 38bc 3785 4f3d 95f7 053d
00000030: 1768 283d 517d 623b a34a fb3b 0c6b 68bd
00000040: 1472 b73c 2c53 f5b8 829a 813c 2532 e73c
00000050: 6852 3e3d c6a7 5abc 386b 493c 4d66 973c
00000060: c181 65bd 9e6e 7abd da88 653b e699 153a
00000070: ca24 00bd 21c6 afbc ada2 58bc fb87 86bc
00000080: d539 533d 8982 35bc 7577 a5bc 2220 32bc
00000090: 6473 393d c512 783c 9c50 cc3c 9714 df3c
000000a0: f159 63bd 788e bcbc cf09 60bc 9d25 8dbd
000000b0: 3376 f13b 3b28 f43a 3469 c4bc eb37 33bd
000000c0: 9026 c53c 7a36 45bd 6b1a b63b 68cb bdbd
000000d0: 7f70 e53b 37b9 b9bc 897a 4f3c a3d9 e0bc
000000e0: d752 533c 8a8e 3a3d a178 12ba 7258 1c3c
000000f0: e6be 0000 ee31 02bd 03cc bcbc 01e2 f5bc
00000100: deba c23c faf8 a53b 1a9a 743c ab81 8c3b
00000110: cfed efbc fd37 9b3c d58e 87bc d0a7 66bd
00000120: f4c2 92bc b45d 61bc 2bbb 2c3d a545 bbbd
00000130: 9d4a 643d 089c 13bd 0f66 0880 fe01 953c
00000140: 9b1f 2c3c 71bf f8bc 34c9 e5bb 64e4 1b3d
00000150: e7bc 383d 77d5 863c 90ba 0900 0495 90bb
00000160: 7af2 1fbc dc04 a7bc 776a 7bbd 34b5 0000
00000170: 144f 453c 6f2e 3f3d 3da0 3a3d 0a3a 65bb
00000180: e3cc d2bb a218 5c3c 3e45 d6bc 299a d93c
00000190: a904 02bc cf7b 03bd c92e 563b a99f f9bb
000001a0: 824a 0880 3987 133c d4b0 393d 8b68 dc3c
000001b0: 6b7f ccbc e8de 0dbc 6242 143d e0bf abbc
000001c0: 250b 93ba 384f 0abd c6ac 9cbc 3487 a93c
000001d0: 1e0d 73bc a327 39bc ae06 18bd 9b83 75ba
000001e0: b0ed 753c a3b3 b13c 256d 8d3a f8d9 0f3d
000001f0: bcda 803c f78e ae39 9bd7 883c a195 b20d
00000200: 31eb 50b4 171d 0200 7c43 bd89 3018 f5a7
00000210: d151 0480 0e4e 680f 7362 db09 381c de09
00000220: ba44 8c09 d912 69b4 0233 dc07 a4a5 b816
00000230: 4c45 45af 74e4 09b4 5208 aab1 95f3 fc07
00000240: 086d 0400 bc89 7ab4 a666 8fb1 b24e 34a6
00000250: a061 6db4 e21f 4e89 556f 5199 b76c 8ba8
00000260: 6240 0300 428a d507 4cc4 dfa5 cc4c 640a
00000270: bd63 7889 565b 0600 2d30 0480 61a2 0600
00000280: 60f8 8480 8e78 66b3 0214 9c89 748e 438a
00000290: b8ad ed9f 04c6 e2b4 57c8 69af 89ae 0380
000002a0: e4b3 0900 ca51 71aa bc57 0780 58c4 0400
000002b0: 47b3 2d0a 0341 a287 1a0e 5388 e25e 23af
000002c0: f4fb 0300 7842 0780 a979 01a5 a9b2 5b8a
000002d0: 99b0 0180 a20f 0500 753b 6597 ad2b 0600
000002e0: 0c1a 17b1 2b2b 25ae 87a3 41a4 9dd9 f0b2
000002f0: d50f 0780 b427 b6b5 dcb4 c892 6591 99af
00000300: 653a 0700 56f5 acb0 32e9 0ea5 9b6b 6ab4
00000310: c7ac 200a 1b5f ef09 0796 0100 1422 0c00
00000320: dd37 be89 4347 9eae b8b1 e0b0 947c eca8
00000330: 23e2 03ab f2df 0480 48d9 0080 b761 ffb2
00000340: 89cd 1ab4 3776 f197 463e a18a 8137 7eb2
00000350: d95c ae88 ed9c 0100 8fc1 1000 53e2 1408
00000360: 3b42 0200 4dbf 0080 c641 0200 4678 0a00
00000370: 6086 040a 6905 56b5 4167 0580 c60b 49b3
00000380: dbf5 3fb3 403c 480a 292c 0080 c702 0300
00000390: fb24 60b4 1412 0600 0292 590a 55d4 04b0
000003a0: adf2 0500 336a 91b2 6907 0600 ea20 8688
000003b0: f565 bda7 0c57 0000 aa15 0180 bb81 0718
000003c0: af42 f989 f1c2 000b 25e6 3eb1 d196 0ab5
000003d0: 4765 b033 d971 3ca9 1c38 0600 9de4 1188
000003e0: 4ea8 e1a9 1d96 8988 0481 28ac 8352 0680
000003f0: cca7 dcb5 0138 8e07 dbe1 4f03 374d 0800
0.0268825 -0.00027735508 -0.12042241 0.02870158 -0.061611574 0.022275813 -0.05183402 0.03471733
0.0018216002 -0.011258175 0.050664153 0.032706816 0.041114893 0.0034559558 0.0076688095 -0.056742713
0.022393264 -0.00011698002 0.015820745 0.028222153 0.046465307 -0.013345664 0.012293629 0.018481398
-0.056031946 -0.06114065 0.0035024197 0.00057068316 -0.031285085 -0.02145678 -0.013222379 -0.016422262
0.051568825 -0.011078485 -0.020198563 -0.010871919 0.04527606 0.015141194 0.024940781 0.027231498
-0.055505697 -0.023017153 -0.013674214 -0.0689194 0.007368827 0.0018627712 -0.023975946 -0.0437545
0.02406624 -0.048147656 0.0055573485 -0.09267312 0.007001936 -0.022671325 0.012663492 -0.027447527
0.0128981685 0.045546092 -0.0005587433 0.009542571 6.8481e-41 -0.031785898 -0.0230465 -0.030014994
0.023770746 0.0050650807 0.014929319 0.0042879186 -0.0292882 0.018947596 -0.0165476 -0.056312382
-0.017915227 -0.013755251 0.042170685 -0.09144143 0.05573522 -0.036037475 -7.71296e-40 0.018189427
0.010505582 -0.030364724 -0.0070125107 0.038059607 0.045102026 0.01645921 8.93445e-40 -0.0044122953
-0.009762401 -0.02038806 -0.06138083 6.5003e-41 0.0120427795 0.046675142 0.04556297 -0.003497722
-0.006433116 0.013433607 -0.026156064 0.026562767 -0.007935681 -0.032100495 0.0032681695 -0.00761791
-7.61412e-40 0.009004408 0.045334652 0.026905319 -0.024963101 -0.008659102 0.03619612 -0.020965517
-0.0011218531 -0.033766955 -0.019125354 0.020694353 -0.01483467 -0.011300954 -0.037115745 -0.0009365619
0.015010282 0.021692103 0.0010789974 0.03511998 0.0157293 0.00033294383 0.016704371 1.1006119e-30
-1.9457072e-07 1.94106e-40 -4.5563557e-33 -6.8027384e-15 -3.96692e-40 1.1453516e-29 5.2814913e-33 5.3471093e-33
3.3768404e-33 -2.1706673e-07 3.31319e-34 2.9831337e-25 -1.7941665e-10 -1.284223e-07 -4.948597e-09 3.805991e-34
4.06455e-40 -2.3333172e-07 -4.1735175e-09 -6.2556697e-16 -2.2107861e-07 -2.481134e-33 -1.082753e-23 -1.5479248e-14
2.98603e-40 3.2129939e-34 -3.881735e-16 1.09922446e-32 -2.989881e-33 5.83778e-40 -3.84624e-40 6.09264e-40
-1.2211386e-38 -5.3660692e-08 -3.757445e-33 -9.415701e-33 -1.006608e-19 -4.2239856e-07 -2.1262402e-10 -3.38118e-40
8.91052e-40 -2.1433476e-13 -6.74322e-40 4.37777e-40 8.363365e-33 -2.4413261e-34 -6.351208e-34 -1.4858473e-10
3.6589e-40 -6.66693e-40 -1.1230186e-16 -1.0578069e-32 -1.55187e-40 4.64785e-40 -7.4068936e-25 5.66681e-40
-2.1988198e-09 -3.7554997e-11 -4.1988717e-17 -2.8038636e-08 -6.48528e-40 -1.3571612e-06 -1.266636e-27 -2.7933847e-10
6.63796e-40 -1.2584376e-09 -1.2395546e-16 -2.1832095e-07 7.7362156e-33 5.7626594e-33 1.45655e-40 1.114251e-39
-4.579337e-33 -7.197667e-11 -1.6348656e-09 -2.625529e-14 -4.6854377e-13 -4.47678e-40 -7.7946e-41 -2.9730343e-08
-1.4417141e-07 -1.5604102e-24 -1.552716e-32 -1.4797366e-08 -1.0494072e-33 1.4813e-40 1.538804e-39 4.4803173e-34
2.0743e-40 -6.8626e-41 2.07266e-40 9.61501e-40 6.380842e-33 -7.9729085e-07 -4.96218e-40 -4.6809667e-08
-4.4694257e-08 9.6409815e-33 -1.5842e-41 2.76503e-40 -2.0875079e-07 5.57498e-40 1.0475631e-32 -4.832306e-10
5.46233e-40 -1.6928515e-08 5.53671e-40 -8.07257e-34 -5.256858e-15 3.1227e-41 -9.9607e-41 1.7513838e-24
-6.000728e-33 2.479856e-32 -2.777946e-09 -5.1628473e-07 8.214061e-08 -4.1843133e-14 5.71141e-40 -4.3903084e-34
-1.00212034e-13 -8.280679e-34 -2.3945854e-12 -5.80613e-40 -1.6440113e-06 2.1398701e-34 6.10911e-37 7.62383e-40

decoder_lin.2.bias f4 [288]
00000000: f136 c23d ee1b b1b8 3258 023d 9160 23bd
00000010: e698 4aa3 9d7a 903d 6074 41bb 36ae 9d3d
00000020: ffb3 07b9 b2c4 b8ba b8a1 1dba 63aa 993c
00000030: 3aa5 d93b abad 853d a912 863d fb89 16bc
00000040: 9911 0abd 8b84 df3d f2ed a73d eda2 e53b
00000050: 253a 403b 5e01 bf3d 57f5 7d3d dcad 6cbb
00000060: ccb5 feb0 fa4f 1b3d 8b06 0aba a3fb c03d
00000070: 63d5 3b3c bbc3 bd3b e915 629f 593d a33b
00000080: 2242 a2bc 62c3 4b3c 6cf6 cbbb 1884 15bb
00000090: edee ff3d 3dd5 c2ba 54d4 ecb8 b798 813d
000000a0: c1fa d43b 6191 4cbc abcb b9bb d41c b0b9
000000b0: b591 a83d 7960 c2b8 74fb 33b6 8e15 e03c
000000c0: 9b4f e293 7010 3b3c cbf5 4ab8 f89e 8cbc
000000d0: 16c0 0a3d 6d46 bb95 f082 f1bb b0da 6b3c
000000e0: 009a 3cbb dcd5 ebbb e64b 263d fb55 76aa
000000f0: d684 86bd 1819 183d 2184 e3bc dfcc 283d
00000100: c15d 743d 70e5 98ba ccc0 edbb 1ecf eeb3
00000110: 55fc e73b 83d1 383d 947d 9cbb 0542 2fbc
00000120: 2437 073d 0c78 553d bb4d c13c 809d a33d
00000130: a1be 113d 91d0 1a3d 0956 4e3c 8642 9ab9
00000140: 19e2 abbb 6772 51b8 2ed2 fab9 6837 bcb9
00000150: abb2 3b3d 8e0d ddb9 a09f 04bc f4d0 553b
00000160: 6b2b 82b9 2022 713d ed8e 2c3d 8821 6ab2
00000170: 295d 1cba ce55 1ab2 3b11 83bc c006 6d3c
00000180: 4322 8d3d 52da 4dba ae9d d4ba fa27 f33c
00000190: b3a2 35b8 0f45 b4b3 a1a5 ba3c 2d85 2fb6
000001a0: 0f21 643c cbc8 68b9 d63f fcba 25eb ba3c
000001b0: 8a86 27bd 6264 99ba 2d9f 0cbd cd9b 863c
000001c0: 6100 1db2 b0a8 03bc 74e2 c2bc 9cca a13d
000001d0: 397e 1cbb 5b4f 983d 811d 093c 2071 a8bc
000001e0: 9589 4ebd dead fdb9 9177 1dbc f013 1fbc
000001f0: a734 09ba 40a6 e5b8 3254 26a7 593f 1eb9
00000200: e37b 87b8 adb0 68bc c140 6bbc 93a8 30b8
00000210: 4e1b 78b7 00a4 5abc b613 943d 8a64 c3b8
00000220: 7e0b 0b3c c55d 2a3d 3d64 243c 1500 67bc
00000230: d470 c5bc 2a9d 9a3d b46d 2ebc 61a8 ddba
00000240: 48df dd3d 7200 a7b7 d1d6 19a3 0289 9cbc
00000250: 4a1c 3ab7 2759 583d e24d 163d af5e 37bc
00000260: f794 19b9 56c8 19bc b194 8f3d 5e19 0b3d
00000270: 239d aa9a fd08 e43c 2933 98b1 f050 c4ae
00000280: e0ba 03b9 1edb 0d3e afb0 043c 7325 2cb2
00000290: 68f3 3ab6 1b50 673d e1af 29ba e601 aebb
000002a0: e1a2 983c f374 30bd 8c84 5ab4 4384 e1bb
000002b0: ed30 923c baba c1bc 76c4 08ba 6bcf 953a
000002c0: aeeb 30bd 2ccc e4bb 94d8 2dbb 598a 873c
000002d0: d375 58b8 5258 18b9 3226 6f3d b175 17bd
000002e0: 4cad 023d aae3 6bb7 c399 88b9 05b0 bb3c
000002f0: fab7 31b2 691b a6ba 8620 e8b5 92d6 ba3b
00000300: 458d cf3c 39eb 093d f93b d1bb 3c53 303d
00000310: 1725 e4b9 a440 d1bb 0b27 fcb9 39f6 78bc
00000320: dbb8 38b7 0400 6a3b d709 8a3d ca46 4e3d
00000330: 0dcb 14bd c271 983d da79 a43c 5513 5cb2
00000340: 7193 553d 7bf5 2bbd f8c5 863d 51a1 1bbc
00000350: 3d17 07bd f59d 3d3d 6a09 a0b9 5a3f dca0
00000360: b6e5 913d c8e1 f4a7 cfa1 303d 51e7 ec3c
00000370: 156b 143d 210a febb 0449 feb8 4c7c 89bc
00000380: f03e 11bd af8b 83a2 0218 e33d c97d 023d
00000390: 0d55 d83c ce62 503c 50c4 9abb 3bbf 68bd
000003a0: b906 7d3d 470c dc3d d3b2 74bd 6ac7 303d
000003b0: 7975 2a9d ccb0 d2a9 0009 15bc 3373 d03d
000003c0: 3050 34bb aa4a b5b9 7578 d5ba 900b 253d
000003d0: c43f 43bc 8ced 1cbd 4def a13d b496 4eb8
000003e0: 1ee0 51bc 6f06 053d fc4c 82bc 8a95 2c3c
000003f0: e355 4b3d c3ec fcbc bd96 e4b4 4805 5c3d
0.094831355 -8.44522e-05 0.03182239 -0.039887015 -1.09828194e-17 0.070546366 -0.0029518828 0.07699244
-0.00012941657 -0.0014096706 -0.00060131727 0.018758005 0.006642011 0.06527265 0.06546528 -0.009188171
-0.03370819 0.109139524 0.08199681 0.0070079477 0.0029331532 0.09326433 0.062001552 -0.003611437
-1.8532602e-09 0.03791807 -0.0005265257 0.09422996 0.01146445 0.005791155 -4.7875485e-20 0.0049816784
-0.019806925 0.01243672 -0.006224444 -0.002281433 0.12496743 -0.0014864575 -0.00011292906 0.06327956
0.0064996188 -0.012485833 -0.005670031 -0.00033590815 0.082309164 -9.26861e-05 -2.6819444e-06 0.027354028
-5.7128918e-27 0.011417493 -4.8389466e-05 -0.017165646 0.033874594 -7.563981e-26 -0.0073703453 0.014395401
-0.0028778315 -0.007197125 0.040599726 -2.187902e-13 -0.06568305 0.037133306 -0.027772965 0.041211005
0.059659723 -0.0011665057 -0.007255649 -1.1120413e-07 0.007079641 0.04512168 -0.0047757123 -0.010696893
0.03301157 0.05211644 0.023596635 0.07989025 0.03558219 0.03779656 0.012593755 -0.00029422733
-0.005245459 -4.993603e-05 -0.00047840312 -0.00035899435 0.045824688 -0.00042162504 -0.008094698 0.0032625766
-0.0002482788 0.058870435 0.042128492 -1.3628217e-08 -0.00059648097 -8.9834895e-09 -0.015999427 0.014466941
0.068913005 -0.00078526617 -0.0016221309 0.029682148 -4.330529e-05 -8.394465e-08 0.022784056 -2.615455e-06
0.013923897 -0.00022200045 -0.0019245099 0.022817204 -0.04089979 -0.001170289 -0.03433149 0.016431713
-9.138689e-09 -0.008035824 -0.023789622 0.07899973 -0.0023878946 0.07437011 0.008368851 -0.020561755
-0.050424177 -0.00048385462 -0.009611026 -0.009709343 -0.0005233981 -0.000109505374 -2.308277e-15 -0.00015091653
-6.460377e-05 -0.014202279 -0.0143587 -4.2118667e-05 -1.4788309e-05 -0.013344765 0.07230322 -9.3170514e-05
0.008486627 0.04159333 0.010033664 -0.014099141 -0.024101652 0.07549508 -0.010646272 -0.0016911143
0.10833603 -1.9908159e-05 -8.339636e-18 -0.0191083 -1.10930505e-05 0.052819397 0.03669537 -0.011192008
-0.00014646711 -0.009386143 0.070107825 0.03395974 -7.056422e-23 0.027836317 -4.4295985e-09 -8.9274255e-11
-0.0001256275 0.13853118 0.008098765 -1.0020233e-08 -2.785784e-06 0.05647288 -0.00064730464 -0.005310285
0.018632354 -0.04308028 -2.0351052e-07 -0.006882222 0.017845595 -0.023648608 -0.0005217263 0.0011429613
-0.04319351 -0.006982347 -0.0026526796 0.016545461 -5.1608145e-05 -0.00014528751 0.058386035 -0.036977474
0.03190355 -1.4060099e-05 -0.00026054503 0.022911081 -1.0344587e-08 -0.0012672964 -1.7294813e-06 0.0057018483
0.025335917 0.03367159 -0.006385323 0.04304813 -0.00043515183 -0.0063858796 -0.00048094275 -0.015195423
-1.1010295e-05 0.0035705576 0.06740158 0.05036048 -0.036326457 0.074435726 0.020077635 -1.2810081e-08
0.052142564 -0.041982155 0.06580728 -0.00949891 -0.032981146 0.046293218 -0.00030524592 -3.7311372e-19
0.07123892 -6.7968397e-15 0.043123063 0.028918894 0.036234934 -0.0077526723 -0.00012125264 -0.016782902
-0.035460413 -3.5655517e-18 0.110885635 0.03185824 0.026407743 0.012718869 -0.0047231093 -0.056822997
0.06177399 0.10744529 -0.059740853 0.043158926 -2.2560045e-21 -9.356543e-14 -0.009096384 0.101782225
-0.0027513616 -0.0003457864 -0.0016286509 0.04029423 -0.011917058 -0.03831248 0.07906971 -4.925458e-05
-0.012809781 0.03247684 -0.01590585 0.0105337 0.049642455 -0.030874616 -4.2577986e-07 0.053715974

decoder_conv.0.weight f4 [32, 16, 3, 3]
00000000: e462 933c 250b 573d 347e 7ebc 5af7 fe3c
00000010: c557 f0bd f4b2 ed3d 93cb 053d 1f4d 0abd
00000020: 3e77 88bd 1c11 ab3c 5bb4 823d 25f6 c5bc
00000030: 9026 843d 5ad9 1e3d 03d6 6abd c379 503b
00000040: dabd 9ebc f81c 30bd 144e be3c 7f42 51bb
00000050: 3d6b c93b f5f1 f9bc 64e9 d83c 5649 b4bd
00000060: 20af 20bd 99e2 153e bfa3 773c 140c b73a
00000070: 3cfd a53d 67e8 813d d07b 9ebb 7515 7f3d
00000080: 3684 9b3c 6258 1e3c 466f 8e3d 1d00 333d
00000090: 8a45 3abc 8150 7d3d 2aa9 bcbd 2723 d33d
000000a0: 4b5a ffbd f524 aebb 3fb8 2fbd 60ac aa3c
000000b0: 600b 80bc 3084 c7bb bb47 bdbc 173b b83d
000000c0: 4b3b 43bd 31b1 aabc 4aa6 2c3b c9fe 6c3d
000000d0: 198a 003b 6b43 43bd 9254 a1bc 984b cbbd
000000e0: 1a35 db3d c941 84bd 8956 39bc 7dfa 89bd
000000f0: a858 573c cc82 423c c57a 113d 77ff bbbd
00000100: fba8 edbd 4bfe c93c a7c9 ecbc 37c8 573d
00000110: b65a 433d fa58 0dbd 811e 56bd 8997 383d
00000120: ad4f 24bd 061a 3fbc cdb0 36bd 8b66 803d
00000130: 7885 4abd d6c9 d6bd 326c 3ebc abe4 f63c
00000140: 9864 0cbc f190 9dbd 325b 39bd ca24 753d
00000150: f626 8e3d df11 b9bd 6e33 173a 582a 27ba
00000160: 15c2 623d 3635 afbc 0e3e 993c 7461 df3d
00000170: f97d 1cbd 52b7 46bd 6677 4f3d bcd0 273e
00000180: 6c23 17bd e31d 65bd 8a1b 9a3d f9e7 9a3d
00000190: 2c6b 60be 5e1a a93c 35d8 3d3d b8ae 7bbd
000001a0: ee60 1abc 2da4 333d 46e7 323d ddfc 3fbd
000001b0: c5f3 07bc 5627 a13d 48c0 773b 4372 433d
000001c0: fdeb db3d 32a0 323c ba51 5cbc 6937 483c
000001d0: 5877 a9bb 646f 60bc 4eaa 9dbc 9043 303d
000001e0: a41e d8bc 59fd c5bd 49cb 623d 9bd1 823d
000001f0: 785a afbc 8f26 edbc 61c3 893c b39a 80bd
00000200: 3303 4e3d ea65 a0bd c9e0 b83d 1df9 e43c
00000210: efee 743d eb4a bfbc 2e15 91bd bd87 87bc
00000220: 7b88 cabc bdc1 883d ad0b c03d d7b2 5abd
00000230: fbfb cd3b 633a 3d3d 510d a23d 3abb 033d
00000240: 69de 9a3d a670 08bc 55d3 15bd 6f22 46bd
00000250: eb82 363a a1be 03be 1f8c 23bd 8014 a43c
00000260: 7e4b bbbc fd77 39bd eb79 713d f083 58bd
00000270: 5994 1f3c fd6b 043e ebef 7abd 67ec 0dbc
00000280: 8f77 863d 9c98 c1bd 738a 05bd 9cd0 4dbd
00000290: 673c 943c 930e a9bd 6597 a63d 0823 673d
000002a0: fb38 86bc 160b 5cbc 9e7e bf3d d999 c6bd
000002b0: dd29 83bd 6816 6dbc db91 e33b 9cb4 d13c
000002c0: 5a4f 08be f1f9 6d3d 1d28 0f3a 2369 a3bd
000002d0: b406 5dbc f287 82bd 01fc 93bc d30e 703c
000002e0: 31c0 e9bd 8a80 ad3c 5680 083d cb0b 21bd
000002f0: dba4 0bbe 09e4 71bd 74a0 e5bd c3be 1d3d
00000300: a911 31bd 681f af3d 1cc4 5fbb a403 a93c
00000310: 36a1 70bd 264a 813d cd27 69ba c681 cebb
00000320: 8a32 f33c 3f85 c93d 75ea e4bb 8df1 f73c
00000330: 1725 4cbd b24a 20bb bcee 0cbe c971 b7bc
00000340: 1a3e 42bd 31cf 4f3c 5718 833d 72d8 223d
00000350: ea38 b03d 4b4e c73d 9d7c 55bc 423e 9cbb
00000360: e4ef 123c 364b 91bd 7b01 283c c6d6 af3d
00000370: 4acf bbbd 43e2 9d3d 69be e9bc 68cd 11bd
00000380: 9162 bfbc 9104 a4bd 8e68 25bd fd75 0ebd
00000390: 9313 873c ad3e 09bc f2e4 313d b17e 8abc
000003a0: 30cb ea3b 8eba debd c821 d53c 429b 993d
000003b0: bc67 36bd b6ac d8bd 1d30 233d 4818 6b3d
000003c0: 8e0e 903d 4ff6 b83d e684 163d 547d 4abc
000003d0: 9fdb debd f099 bdbc 072a 4dbc 563e 28bd
000003e0: 6a52 81bb 1dd4 a8bd 9db0 01be 9596 fbbb
000003f0: ebca 3f3b fa4e a3bc 4ced d7bd 71cf 2bbe
0.01799149 0.052500863 -0.015533019 0.031123806 -0.11735491 0.11606398 0.032664847 -0.033764955
-0.06663369 0.020882182 0.06382056 -0.024165222 0.06452668 0.0387815 -0.057333004 0.0031810857
-0.019377638 -0.042996377 0.02323059 -0.0031930504 0.006146817 -0.030510882 0.026478477 -0.0880305
-0.039229512 0.14637221 0.015114724 0.0013965392 0.08104941 0.06343155 -0.004836537 0.062276322
0.018983942 0.009664627 0.069548175 0.04370128 -0.0113691185 0.061844353 -0.09211953 0.10309439
-0.12468394 -0.005314464 -0.04290032 0.020834148 -0.015630424 -0.006088756 -0.023105493 0.089956455
-0.047663968 -0.020836445 0.0026344233 0.05786017 0.0019613563 -0.047671717 -0.019693647 -0.09926528
0.10703488 -0.0645786 -0.0113121355 -0.0673723 0.013143696 0.011872005 0.035517473 -0.091795854
-0.11604496 0.02465739 -0.02890475 0.052681174 0.04769393 -0.034508683 -0.052275185 0.04506639
-0.040115047 -0.011663919 -0.044602204 0.062695585 -0.049443692 -0.10487716 -0.011622475 0.030138334
-0.008568905 -0.07693661 -0.045252986 0.059849538 0.06941025 -0.09036612 0.00057678565 -0.0006376854
0.055360872 -0.021387678 0.018706348 0.109072596 -0.038206074 -0.04851467 0.050650977 0.1638822
-0.036899015 -0.055936705 0.07524784 0.075637765 -0.21915883 0.020642456 0.04634877 -0.06144592
-0.009422524 0.043857742 0.04367759 -0.04687201 -0.008297865 0.07868831 0.0037803818 0.04771639
0.107383706 0.010902451 -0.0134472195 0.012220242 -0.0051716976 -0.013698433 -0.019246247 0.043033183
-0.026381798 -0.09667463 0.05536965 0.06387635 -0.021405444 -0.02894905 0.016816797 -0.062795065
0.05029602 -0.078319386 0.09027249 0.027950818 0.059798177 -0.023351153 -0.07084118 -0.016544217
-0.024723282 0.06677578 0.09377227 -0.05339321 0.006286142 0.04619826 0.07912696 0.032160975
0.075619526 -0.008327639 -0.036578495 -0.048372682 0.00069622573 -0.12865688 -0.03992855 0.020029306
-0.022863146 -0.045280445 0.05895416 -0.0528602 0.009739959 0.1293182 -0.06126396 -0.00866232
0.06565773 -0.09452936 -0.03260274 -0.050247774 0.018095208 -0.08254733 0.08134345 0.056429893
-0.016384592 -0.0134303775 0.09350322 -0.09697313 -0.06404469 -0.014470674 0.0069448776 0.025598817
-0.1331152 0.05809969 0.00054609944 -0.079790376 -0.013490368 -0.06373586 -0.0180645 0.014651972
-0.11413611 0.021179456 0.033325516 -0.039317887 -0.13637106 -0.059055362 -0.11212245 0.038512003
-0.043229733 0.08550912 -0.003414399 0.020631619 -0.058747493 0.06312971 -0.00088941754 -0.0063020913
0.029687185 0.09839868 -0.0069859573 0.030266548 -0.04984006 -0.0024458584 -0.13762945 -0.022393124
-0.047422506 0.012683676 0.06401127 0.0397572 0.086046055 0.0973173 -0.013030198 -0.004768164
0.008968327 -0.070944235 0.010254259 0.08585887 -0.091703966 0.077091716 -0.028533177 -0.03559628
-0.02336243 -0.080086835 -0.040382914 -0.03478049 0.016488826 -0.0083767595 0.04343123 -0.016906114
0.007165335 -0.10875426 0.026017085 0.07500316 -0.044532523 -0.10579817 0.039840806 0.057396203
0.07034026 0.09031355 0.036747836 -0.012358982 -0.10881733 -0.023144692 -0.012522227 -0.041075073
-0.003946592 -0.082435824 -0.12665029 -0.007677863 0.0029265236 -0.01993512 -0.10543308 -0.16778351

decoder_conv.0.bias f4 [16]
00000000: 1161 b0b7 7eff 0fb8 444f c3b8 5b0d 8db8
00000010: cac9 a4b7 8b25 a4b8 ad68 d9b8 f23e 4f38
00000020: 1c82 c037 b63f 9e38 73f0 bf38 35f2 0ab9
00000030: 773f 3939 0c17 13b8 4a45 5ab8 0cb4 e1b7
-2.1026035e-05 -3.4331802e-05 -9.313089e-05 -6.7258916e-05 -1.9644289e-05 -7.827122e-05 -0.00010366864 4.941127e-05
2.294877e-05 7.545894e-05 9.152377e-05 -0.00013250935 0.00017666617 -3.5068995e-05 -5.203978e-05 -2.6905931e-05

decoder_conv.1.weight f4 [16]
00000000: ef30 423f 95cb 343f 2f81 473f b768 393f
00000010: b5c7 673f 0c33 493f fe3f 473f d4ce 3c3f
00000020: aa7a 3a3f 98f6 4b3f 01ea 613f ad01 563f
00000030: 17c0 413f bd88 5d3f 48c8 4c3f 2a41 3a3f
0.75855917 0.7062314 0.77931494 0.7242541 0.90539104 0.78593516 0.7783202 0.73753095
0.7284342 0.7967315 0.88247687 0.8359631 0.7568373 0.8653677 0.79993105 0.7275568

decoder_conv.1.bias f4 [16]
00000000: a513 c2bd 53ec c2bd 0af9 03bd ae04 833c
00000010: a5c2 b73d 81f5 873b ac33 1ebe 78a0 1c3e
00000020: b7bf 06be 0841 eabd 5de7 6ebd abb8 9fbc
00000030: cc6a c0ba 1f5d 8b3b 0a7e d63c bff0 1fbd
-0.09476403 -0.095177315 -0.032219924 0.015993442 0.089726724 0.0041491394 -0.15449399 0.15295589
-0.13159071 -0.11438185 -0.058326114 -0.019497236 -0.0014680265 0.0042530443 0.026183147 -0.039047953

decoder_conv.1.running_mean f4 [16]
00000000: 4dec 3dbc 3dfc 68bb ae97 a3bb 3b2b 93bc
00000010: 40eb 2abd cccf acbc 6751 1ebc 34b0 e83b
00000020: 1df4 c4bc 755d 59bc 211e b93c 0ad5 77bc
00000030: af62 01bd c325 68bc 2571 87bb 1292 9fbc
-0.011591983 -0.0035550736 -0.004992447 -0.01796495 -0.041728258 -0.021095179 -0.0096629625 0.007101083
-0.024042184 -0.013266911 0.022597374 -0.015126476 -0.031588253 -0.014169159 -0.004133361 -0.019478831

decoder_conv.1.running_var f4 [16]
00000000: d5dc 763a 8b72 a23a 9dcf ba3a cdfe 913a
00000010: 935a cb3a a857 ec3a d28d a33a 9d7d b83a
00000020: e2f0 8e3a df5e 873a 69d8 d53a 6c1c d23a
00000030: 2165 c63a fa44 fd3a 7ff3 b83a ca71 bc3a
0.0009417062 0.0012393756 0.0014252547 0.0011138559 0.0015514664 0.0018031495 0.0012478179 0.0014075522
0.0010905529 0.0010327956 0.0016315106 0.0016030199 0.001513634 0.0019322925 0.0014110653 0.0014377174

decoder_conv.3.weight f4 [16, 8, 3, 3]
00000000: 0f33 a63d 48aa 953d 364c 34bd a1fb 483d
00000010: e3c2 5c3d 63d5 85bd aa4c 98bd c496 60bd
00000020: 2024 07bd e436 4b3d 6a68 563d 9851 c3bd
00000030: 28dc c33d 8c0b eabc 48df d2bd db88 c43d
00000040: 3e85 b33d de2d 67bb 2c87 813d b42f 31be
00000050: 06bf 69bd b876 a93d 425b 28be 9a30 59bd
00000060: 6221 2ebd ce78 c0bd 7aff 57bc 0491 643c
00000070: ce6c bc3d df27 0dbc f9ed b9bc 7305 973c
00000080: 9a30 aabc ad9f babd 7ee3 41bd b21b 2abd
00000090: 03c8 363d f1d4 f63d ddf9 383d 167e a6bc
000000a0: 1c27 7ebd 77c7 423d 58fa 99bd e5bd 63bd
000000b0: 4cfa bcbc 8f79 a73d d399 4cbd 81c9 0dbc
000000c0: 056f 16bc 2282 69be 645c 23bd b636 60bc
000000d0: e241 a2bd 78a2 853c d587 873c d592 1b3d
000000e0: 3c87 43bd cf53 cb3d f7d5 393e 0acb cfbb
000000f0: 07d2 fa3c efa1 523d 1913 203b be7c ae3d
00000100: 6136 123e 089e a73d 26f0 f73d b661 2e3e
00000110: 09f0 963c 321a 8e3c 728d 6fbc c44a 2abd
00000120: f37c 433d 8f5f 2fbd f412 c539 7d83 d13d
00000130: 0896 073d adde 24bd db72 ce3c 6e88 493c
00000140: 8962 3dbd 20a8 84bc 43a4 d93c 6ac4 27bc
00000150: 0743 583e b7e8 35bc 7425 20bd e975 383e
00000160: 0372 ff3d eb7f ecbc 7234 2f3c 24ee f9bc
00000170: 3d31 31bb 0c0f 623d e93d f1bd d0db c4bb
00000180: e4b7 953d a5d2 70bd 3a13 01bd 7df2 193d
00000190: feb6 0d3c 59c0 93bd 2384 853d 5d50 023e
000001a0: 3df9 ac3c d603 a63c 67e8 553d c08a 0c3d
000001b0: 1f0c e63c c6d7 2a3d f438 92bd e525 e93c
000001c0: 2b30 2dbd 0756 05bd f0d2 ca3a 2a93 a1bc
000001d0: 4972 0abc ef6b 873c 0986 49bd b23b 8fbc
000001e0: 0070 643d 72ef 6ebd 602e 593c 0985 9cbd
000001f0: 9f0a 18be a59b f03c 6d3f 713b 8720 4cbd
00000200: 797f 0ebd 00dd 403d 7508 5c3c 4a13 68bd
00000210: dda0 113e 1e7b e03d 3f3f 32bd 0c2e 7dbc
00000220: 9c81 233a 6b02 b2bc 0500 d7bc fe32 813d
00000230: 62af ebbd 88dd 5b3b 7eff 11bd b6bd 8b3b
00000240: 3936 ccbc 09fc 3dbd a125 50bc e6ed a53d
00000250: 0295 6c3d 21ba a73c 4327 563d c9f7 7fbc
00000260: f5dc 603b 49a6 6ebc e204 62bd 8088 a8bc
00000270: e78a 9e3d 07c7 80bc de71 e0ba 8c49 103e
00000280: 68f3 913c 190b 44bc c0f6 f1bc 2f24 8bbd
00000290: bc59 15bd 92cf 8d3c 6d22 82bd 1c7c fdbc
000002a0: ee59 043e 7795 68bd 341d 8ebd 887a 5ebd
000002b0: e5d8 43bc 115d 1ebe de1d 523d f21e 313e
000002c0: 666f a9ba c223 703d 4733 d83d 80ae cbbc
000002d0: 8db0 22bd 854a 9cbd e4ff 5bbd f433 f3bc
000002e0: fbcd 8ebd 6ea9 5d3d 1a45 11bc ca09 3e3d
000002f0: c3aa eb3d 4cd9 17bd ef99 d0bc 3890 7abc
00000300: d3da ba3c c0b6 f93c 685d 96bb 2932 6bbd
00000310: de43 23be 3090 c6bd 4f64 11bd 6214 c3bd
00000320: 80b5 cabd 366e 0ebc 71f4 91bd cd71 c1bd
00000330: 4480 0e3e ad23 183e 77ca 843d 296f bfbb
00000340: 0c9c 2cbd 1e5d 8cbd 3101 a6bd 2776 fcbc
00000350: 2825 7cbd 73d0 d43b d271 be3d fde5 543d
00000360: d36b 013d 03bd 803c 6284 943d cf61 68bc
00000370: f036 9d3d 1633 a13d 1a47 31bc c655 e4bd
00000380: d862 67bc 8f7a a03c f853 b33d df77 883d
00000390: 3a34 f83c d902 38bc 631b b53d 576f aa3c
000003a0: 09d7 533c c822 193b 2d55 903d 11fb 0d3e
000003b0: 33d7 94bd 6d72 403d f20d 1d3e 556f b9bc
000003c0: e941 813d c533 c03d 1ce4 133d 3a62 f0bd
000003d0: b707 ac3d 97d5 2dbd fa31 e1bd 3ad7 cf3d
000003e0: d863 18be 2194 ddbc 0781 8d3d 5f9d 8c3b
000003f0: 4f60 92bd 6077 0f3d 1ac3 c03d 9b0e ddbd
0.081152074 0.07307869 -0.044017993 0.049068097 0.053896796 -0.06534841 -0.074364975 -0.05483128
-0.032993436 0.049612895 0.05234567 -0.09537047 0.09563476 -0.02856996 -0.10296494 0.095964156
0.08765648 -0.0035275142 0.0632461 -0.17303354 -0.05706694 0.08274597 -0.16441062 -0.053024866
-0.042512305 -0.09398042 -0.013183469 0.01395059 0.0920044 -0.008615463 -0.022696482 0.018435216
-0.020775128 -0.09112487 -0.047336094 -0.04153032 0.04462434 0.12052334 0.045160163 -0.020323794
-0.062049016 0.047553506 -0.075184524 -0.05560102 -0.02306857 0.08177482 -0.049951386 -0.008653999
-0.009181743 -0.22803548 -0.039883032 -0.013684919 -0.079227224 0.016312823 0.016544262 0.037981827
-0.04773639 0.099280946 0.18148027 -0.006341343 0.030617727 0.051423963 0.0024425446 0.085198864
0.14278556 0.08184439 0.121063516 0.17029461 0.018425005 0.017346475 -0.0146211255 -0.04157521
0.047726583 -0.04281574 0.0003758889 0.102301575 0.033102065 -0.040251423 0.025201252 0.012300594
-0.04623655 -0.01619345 0.026567584 -0.0102397 0.21119319 -0.011102847 -0.039098218 0.18013729
0.12472918 -0.02886959 0.010693656 -0.030509062 -0.0027037405 0.05519013 -0.117793866 -0.006007649
0.07310465 -0.058794636 -0.031512477 0.03758477 0.008649586 -0.07214422 0.06519344 0.12725969
0.02111494 0.020265501 0.05222359 0.03431201 0.028081952 0.041709684 -0.07139769 0.028460452
-0.042282265 -0.032552745 0.0015474241 -0.019723494 -0.008450099 0.016530959 -0.04920009 -0.01748452
0.055770874 -0.05833382 0.013255686 -0.07642562 -0.14847802 0.029371092 0.0036811486 -0.049835708
-0.034789536 0.047085762 0.013429751 -0.05665902 0.1422152 0.10960983 -0.043517347 -0.015452873
0.000623727 -0.021729669 -0.026245127 0.06308554 -0.11508061 0.003354879 -0.035644047 0.0042645587
-0.0249282 -0.046382938 -0.012704284 0.08102016 0.057759292 0.020474495 0.052283537 -0.015623041
0.0034311388 -0.014566013 -0.055180438 -0.0205729 0.07741337 -0.015719904 -0.0017123779 0.14090556
0.01781626 -0.0119655365 -0.029536605 -0.06794011 -0.03646253 0.017310891 -0.063542224 -0.030942969
0.1292493 -0.056783166 -0.06939164 -0.054316074 -0.011953567 -0.1546519 0.051298015 0.17296961
-0.0012926876 0.05862785 0.105566554 -0.024863482 -0.039719153 -0.07631401 -0.053710833 -0.02968786
-0.069728814 0.05411666 -0.008866573 0.046396054 0.115071796 -0.037072465 -0.025464026 -0.0152931735
0.022809422 0.03048265 -0.0045887716 -0.057420883 -0.15943858 -0.0969547 -0.035496052 -0.09525372
-0.098979 -0.0086932685 -0.071267016 -0.09445534 0.13916117 0.14857359 0.064839296 -0.0058421087
-0.042141005 -0.06853698 -0.08105696 -0.030818058 -0.061558872 0.0064945756 0.09299053 0.051977146
0.03159697 0.015715128 0.072518125 -0.014183476 0.07676494 0.07871072 -0.010820175 -0.111491725
-0.014122687 0.01958969 0.0875625 0.066634886 0.030298341 -0.011231148 0.08843114 0.020805044
0.012929686 0.0023366679 0.07047496 0.13865305 -0.072676085 0.046984125 0.15337351 -0.022636095
0.063113995 0.09384874 0.036106214 -0.11737485 0.08399909 -0.042440023 -0.109958604 0.10148473
-0.14881837 -0.027048172 0.06909376 0.004291221 -0.07147276 0.035025954 0.09412213 -0.107938014

decoder_conv.3.bias f4 [8]
00000000: 4776 74b6 6346 9134 04e9 ef37 4e6f 1236
00000010: bfa3 7037 fc55 89b6 f85c 3a37 3dd0 ae36
-3.642768e-06 2.7059568e-07 2.8599527e-05 2.1820483e-06 1.434324e-05 -4.092928e-06 1.110811e-05 5.209846e-06

decoder_conv.4.weight f4 [8]
00000000: 6255 ee3f e850 ec3f 0460 c03f 2bc5 d73f
00000010: 523b c63f e722 d93f ad88 fe3f 3c38 c83f
1.8619807 1.8462191 1.5029302 1.6857046 1.5486853 1.6963776 1.988546 1.5642161

decoder_conv.4.bias f4 [8]
00000000: ca33 8a3f 434c 633f 5a16 363f 0e68 813f
00000010: 090e 323f a49e 503f 65dd ac3f ec6a 3f3f
1.0797055 0.8878824 0.71127856 1.010988 0.69552666 0.81492066 1.3505064 0.74772525

decoder_conv.4.running_mean f4 [8]
00000000: 3e4c ae3b 3118 f23d 6f66 83bd 8c45 bb3b
00000010: 4f79 1abc a9ee 8ebe 2c1e f33d d2a1 093d
0.0053191474 0.118210204 -0.06416022 0.0057150777 -0.009428336 -0.27916458 0.11870989 0.03360159

decoder_conv.4.running_var f4 [8]
00000000: 6fd6 1e3d 9b37 433d f6f2 b13c 86ac 263d
00000010: 612b f93c 65ab e23c 9bcb f33c 20e1 303d
0.03877872 0.04766045 0.021722298 0.040691875 0.030416192 0.027669618 0.029760173 0.043183446

decoder_conv.6.weight f4 [8, 1, 3, 3]
00000000: 9539 35be 8b66 6dbe 63a2 81be eb66 f1be
00000010: 5d65 5abf dc60 1cbf 1aeb 29be 0c60 7dbe
00000020: defc ebbe dade 67be 2aec a0be 5630 27be
00000030: abb8 0fbf f47b 72bf d71b 14bf 9800 fdbd
00000040: 05ea 88be b410 8cbd 7fea d6bd 550a 21bf
00000050: 5fc0 bcbe e3d9 ddbc 23ad 44bf b87c 1cbf
00000060: 08e5 db3c b8e0 c8be 61f1 26be f78c ccbd
00000070: a08f aebe 965c 3c3d fc5b f7be 2778 50bf
00000080: 4e1d c9bd ed0f dbbe d131 14bf adad 00be
00000090: eed0 20be c01f 43be 0be1 18be de7b f7be
000000a0: 51c1 16bf 56f8 10bf 17de 83be deef fdbe
000000b0: 11e4 efbe 3376 2b3f f5cb 4d3f 86f0 2a3e
000000c0: bebc 373f dc93 0a3f 685a e7bd 6554 ec3d
000000d0: 71f4 3abe c450 9dbe c028 6abe aca1 e8be
000000e0: 95a9 babe 881f 6cbe 8384 0cbf e159 fbbe
000000f0: f636 e6be 034c 28bf f646 ffbe 0139 10be
00000100: bfca eabe 2ea1 88be 9a05 64be fe8c 7fbf
00000110: dbbe c8be 6a7c 393d e277 a6be fb04 0a3e
-0.17697747 -0.23183648 -0.25319204 -0.47148833 -0.8531092 -0.61085296 -0.1659359 -0.2474367
-0.4609136 -0.22643605 -0.3143018 -0.16327032 -0.56141156 -0.9472039 -0.5785498 -0.12353629
-0.26741043 -0.06839123 -0.10493945 -0.6290639 -0.36865517 -0.027081436 -0.76826686 -0.61127806
0.026842609 -0.39233947 -0.16303016 -0.099878244 -0.34093952 0.045986734 -0.48312366 -0.8143334
-0.098200426 -0.42785588 -0.57888514 -0.12566252 -0.157047 -0.1905508 -0.14929597 -0.4833669
-0.5888873 -0.5662893 -0.2575538 -0.49597067 -0.46853688 0.6697723 0.8038934 0.16693315
0.7177237 0.54131866 -0.112965405 0.115395345 -0.1825731 -0.30725682 -0.22867107 -0.45435846
-0.36457506 -0.23058903 -0.54889697 -0.4909201 -0.44963807 -0.65740985 -0.49858826 -0.14084245
-0.45857808 -0.2668547 -0.22267762 -0.9982451 -0.3920811 0.045284666 -0.32513338 0.13478462
