timothe/models/decoder.pth (torch, 184745 bytes, 17 tensors)

decoder_lin.0.weight f4 [128, 12]
-0.061321177 0.109384626 0.2154186 -0.11775516 0.11668751 0.22090851 0.16606703 0.03967084
0.032907028 -0.089451954 0.040665153 0.012284742 0.08104935 -0.04747879 -0.022759639 0.10047161
-0.07276587 0.032013543 -0.17348935 -0.08480997 -0.12757325 0.19347756 0.036532816 0.20657076
0.070390575 -0.034067836 -0.0073596905 -0.05509223 -0.08558163 0.14236592 -0.20156467 -0.19206992
0.0065554027 0.098647125 -0.012882752 0.027610173 0.17237012 0.08622184 0.2230069 -0.038001314
-0.019421328 -0.13580008 -0.016756937 -0.098756015 -0.06562849 -0.18063283 -0.164714 -0.0067254216
0.017535215 -0.2118656 0.10718387 -0.030660763 -0.24915051 -0.11546688 0.17850184 -0.19763556
-0.22127518 -0.14019096 -0.10843518 -0.27763724 -0.062968895 -0.030898247 0.16215545 -0.010490278
-0.114934705 -0.027188197 -0.21489882 0.1522304 0.07084282 0.19724649 0.097897865 0.14490733
0.21349302 -0.0763481 0.048004437 0.0044848486 0.004639381 0.1343886 -0.12020341 0.050747823
-0.021022314 0.060021218 -0.23823638 -0.054914556 0.24194475 -0.004706514 0.124572866 -0.07141947
-0.09113844 -0.009604139 -0.0023786821 0.0129842535 0.039311253 0.05193614 0.01889071 -0.114952154
-0.072120875 0.14489028 0.09058379 -0.017716123 0.19420865 -0.04185223 -0.11525303 0.26802337
-0.22039497 0.25963423 -0.049827732 0.16858234 0.04577029 0.18116252 -0.10469783 0.27401805
0.047572248 -0.067493774 -0.2613964 -0.1636074 0.068304 0.088827305 0.06361048 0.0657024
0.08869355 0.0080152685 0.057070546 0.20501147 0.010877027 -0.076961726 0.1842638 -0.08409999
0.06585174 -0.10725748 0.079130515 -0.07671687 0.23042454 -0.10387199 -0.089946 -0.08361273
0.22221737 0.0340704 -0.028531307 0.025639815 -0.084191576 0.26201776 -0.0018715764 0.16184583
0.055946816 0.09851248 0.21906416 0.21694542 0.05966502 0.13777651 0.08928768 0.15230334
0.18893723 0.18858498 -0.033062316 -0.06538256 -0.16983846 -0.21166945 0.0419007 0.16716243
0.05207525 0.23435187 0.042527035 0.121972725 -0.02057774 0.25661218 0.04827162 -0.053403784
-0.08513498 0.17315404 0.19305399 -0.23328017 -0.2751832 0.24329865 -0.2730449 0.023092076
0.008149929 0.18322335 -0.12208258 0.12456126 0.20632437 -0.007431244 -0.008492 -0.22328861
0.016389139 0.040238444 0.025963392 0.08870243 -0.07501675 -0.07512764 -0.0016959897 -0.030737031
-0.034053817 -0.10462596 -0.10670339 -0.077821344 0.07963166 0.0054607047 0.16277534 0.029920777
-0.038126588 -0.098983556 -0.13149148 0.14258412 0.07529852 0.07758621 0.07123297 -0.09639439
-0.049918085 0.19299653 -0.11374748 0.13411333 -0.12509952 -0.12917563 -0.11149515 -0.16691302
-0.09287796 -0.082266234 -0.10098484 -0.18255544 -0.068176664 -0.11477469 -0.10191731 -0.17544992
-0.045647692 -0.11313815 -0.06248226 -0.0009078219 -0.20929581 0.12628269 -0.019052532 -0.07386601
0.12855181 0.2228122 0.03826053 0.019188728 -0.1105555 0.0542682 0.15426096 0.13016167
-0.04927412 -0.13062164 -0.22448716 0.14457603 0.15951222 0.2792563 0.10438142 -0.23687029
-0.04031844 0.26537028 0.00543508 0.19134676 -0.17805511 -0.07059033 0.08935197 -0.17213872
00000000: ea2b 7bbd 0c05 e03d b296 5c3e 9e29 f1bd
00000010: dcf9 ee3d d735 623e 7a0d 2a3e e47d 223d
00000020: 85c9 063d 9632 b7bd 8190 263d f145 493c
00000030: 34fd a53d 1f79 42bd 6c72 babc 0fc4 cd3d
00000040: 4606 95bd a220 033d 31a7 31be d9b0 adbd
00000050: 90a2 02be fb1e 463e 6fa3 153d 4987 533e
00000060: ef28 903d b78a 0bbd 8f29 f1bb 64a8 61bd
00000070: 6c45 afbd 5fc8 113e f866 4ebe faad 44be
00000080: b4ce d63b 8107 ca3d 2e12 53bc bb2e e23c
00000090: cb81 303e 1395 b03d ec5b 643e 44a7 1bbd
000000a0: 7a19 9fbc 2d0f 0bbe d845 89bc 9840 cabd
000000b0: 3b68 86bd d0f7 38be c9aa 28be ed60 dcbb
000000c0: 03a6 8f3c 4cf3 58be 3883 db3d 482c fbbc
000000d0: 5021 7fbe e679 ecbd 30c9 363e fa60 4abe
000000e0: f695 62be 388e 0fbe 4313 debd 7826 8ebe
000000f0: d6f5 80bd 521e fdbc 140c 263e 6adf 2bbc
00000100: e362 ebbd c8b9 debc 700e 5cbe 49e2 1b3e
00000110: 0a16 913d fcfa 493e ad7e c83d 9662 143e
00000120: ea9d 5a3e 655c 9cbd 4da0 443d a3f5 923b
00000130: f305 983b 2a9d 093e 352d f6bd f3dc 4f3d
00000140: fd36 acbc cfd8 753d 3df4 73be 16ee 60bd
00000150: 5dc0 773e 1a39 9abb 0f20 ff3d 5f44 92bd
00000160: caa6 babd ae5a 1dbc aae3 1bbb e8bb 543c
00000170: d604 213d fdba 543d b1c0 9a3c 096c ebbd
00000180: 1cb4 93bd 1e5e 143e fe83 b93d 6721 91bc
00000190: a2de 463e 3e6d 2bbd c809 ecbd 5c3a 893e
000001a0: 38af 61be c7ee 843e 2a18 4cbd d9a0 2c3e
000001b0: a179 3b3d ab82 393e d16b d6bd 184c 8c3e
000001c0: 1edb 423d 2d3a 8abd c0d5 85be b388 27be
000001d0: f8e2 8b3d 17eb b53d 3646 823d fb8e 863d
000001e0: f7a4 b53d 7952 033c cec2 693d 87ee 513e
000001f0: 8f35 323c 1c9e 9dbd a6af 3c3e 9e3c acbd
00000200: 47dd 863d cfa9 dbbd 2e0f a23d bc1d 9dbd
00000210: 69f4 6b3e d7ba d4bd 9c35 b8bd 273d abbd
00000220: f38c 633e 678d 0b3d 7dba e9bc 970a d23c
00000230: a26c acbd 3127 863e af4f f5ba eaba 253e
00000240: 7d28 653d e9c0 c93d 5b52 603e f126 5e3e
00000250: 4f63 743d 4915 0d3e 76dc b63d 68f5 1b3e
00000260: c378 413e 6c1c 413e 5a6c 07bd 4be7 85bd
00000270: 22ea 2dbe e0bf 58be 12a0 2b3d a12c 2b3e
00000280: db4c 553d f0f9 6f3e d430 2e3d d6cc f93d
00000290: a692 a8bc ac62 833e 76b8 453d edbd 5abd
000002a0: 405b aebd 4b4f 313e f2af 453e ffe0 6ebe
000002b0: d0e4 8cbe 4823 793e 8bcc 8bbe 982b bd3c
000002c0: 4887 053c e79e 3b3e 6f06 fabd f919 ff3d
000002d0: b246 533e cb81 f3bb 0822 0bbc c5a5 64be
000002e0: 8442 863c 11d1 243d 2eb1 d43c 9fa9 b53d
000002f0: 62a2 99bd 85dc 99bd f94b deba 3acc fbbc
00000300: 047c 0bbd 2346 d6bd 4f87 dabd cc60 9fbd
00000310: ec15 a33d b6ef b23b 94ae 263e 6b1c f53c
00000320: a02a 1cbd e4b7 cabd b4a5 06be 9201 123e
00000330: 1c36 9a3d 85e5 9e3d 97e2 913d 6c6a c5bd
00000340: e876 4cbd e2a0 453e 70f4 e8bd 0155 093e
00000350: 171a 00be 9e46 04be 9257 e4bd 3feb 2abe
00000360: cd36 bebd 337b a8bd 24d1 cebd d0ef 3abe
00000370: 35a0 8bbd fe0e ebbd 06ba d0bd 25a9 33be
00000380: 13f9 3abd f9b4 e7bd 66ed 7fbd e5fa 6dba
00000390: a451 56be 4050 013e 0e14 9cbc 1047 97bd
000003a0: 16a3 033e e228 643e 13b7 1c3d ae31 9d3c
000003b0: ec6a e2bd 5548 5e3d 96f6 1d3e 1a49 053e
000003c0: a9d3 49bd aec1 05be f6df 65be bd0b 143e
000003d0: 2c57 233e affa 8e3e edc5 d53d 208e 72be
000003e0: f324 25bd 9dde 873e c118 b23b 68f0 433e
000003f0: 1454 36be aa91 90bd 2afe b63d 2245 30be

decoder_lin.0.bias f4 [128]
0.22283351 -0.0155639835 0.011450372 0.13612887 0.09422412 0.008499078 -0.05535385 0.039978597
-0.0712567 0.25946352 0.036542315 -0.071188904 0.047096707 0.12942576 0.09497346 -0.049949512
-0.042427815 0.1591657 0.242782 0.05689676 0.290945 -0.019696359 0.14517045 0.1498062
-0.035944056 -0.14035553 0.03295331 -0.017626572 -0.11330229 0.089064136 0.005787064 -0.01983075
-0.01952495 0.21069586 0.05105238 -0.120147824 0.13740382 0.22674344 0.092955016 0.07056599
0.025012733 0.030220909 0.009398379 -0.05749515 -0.1278523 -0.064273804 -0.02109016 0.23366249
0.025222497 -0.12370061 0.088589996 0.12445801 0.008826084 0.06182468 -0.004798895 0.043844778
0.09211708 0.12790391 0.1420012 0.24761096 -0.10599736 0.28603506 -0.048949767 0.11904064
0.049890622 0.057682883 -0.037058014 0.23183227 0.04224253 0.013872979 0.032916646 0.011404754
-0.01781999 0.11024435 0.002437679 0.0117927175 0.1662789 0.02331486 -0.121900156 0.14829962
0.27754954 -0.023560964 -0.0012709018 0.20295417 -0.018757854 -0.0079281 -0.09255226 -0.070599295
0.031980995 -0.12992345 -0.1846594 -0.13212307 -0.034203686 0.123124115 -0.021600215 0.19648558
0.27697214 0.034052577 0.039100386 0.08548179 0.21025589 0.043650225 -0.0993199 0.086537555
-0.052987147 0.25896052 -0.1557516 -0.04035984 0.101412795 -0.037187938 -0.025693249 0.08314409
-0.14550069 -0.148354 0.23474337 0.1585099 0.2041466 0.13881934 0.022470495 0.012254385
0.110530645 -0.07218813 0.17416127 0.030326858 0.24561161 -0.037145346 0.05205389 -0.13806555
00000000: 782e 643e 1400 7fbc 579a 3b3c 5e65 0b3e
00000010: 93f8 c03d b83f 0b3c b8ba 62bd 99c0 233d
00000020: 08ef 91bd 67d8 843e 65ad 153d 7dcb 91bd
00000030: 7ae8 403d 3088 043e 7281 c23d dc97 4cbd
00000040: cac8 2dbd 55fc 223e d89b 783e 940c 693d
00000050: bef6 943e 425a a1bc 90a7 143e cc66 193e
00000060: 133a 13bd 5cb9 0fbe 0dfa 063d 9a65 90bc
00000070: 080b e8bd 4267 b63d 69a1 bd3b 1974 a2bc
00000080: caf2 9fbc a8c0 573e 4d1c 513d 1010 f6bd
00000090: 96b3 0c3e 6f2f 683e 335f be3d e784 903d
000000a0: 81e7 cc3c d791 f73c a9fb 193c 0980 6bbd
000000b0: b7eb 02be fca1 83bd 45c5 acbc 3845 6f3e
000000c0: 699f ce3c bf56 fdbd ac6e b53d d7e3 fe3d
000000d0: 489b 103c e03b 7d3d 0d40 9dbb 9596 333d
000000e0: e1a7 bc3d 3ef9 023e c368 113e ba8d 7d3e
000000f0: 2515 d9bd 3073 923e 8d7f 48bd 94cb f33d
00000100: 1c5a 4c3d e344 6c3d 25ca 17bd 7065 6d3e
00000110: 8106 2d3d 7e4b 633c 9bd3 063d 01db 3a3c
00000120: 3afb 91bc cac7 e13d 78c1 1f3b 3e36 413c
00000130: 0445 2a3e cefe be3c caa6 f9bd dbdb 173e
00000140: f91a 8e3e ec02 c1bc 6394 a6ba 38d3 4f3e
00000150: 12aa 99bc dde4 01bc 0a8c bdbd 5d96 90bd
00000160: 81fe 023d a70a 05be 5b17 3dbe 454b 07be
00000170: 2a19 0cbd 7f28 fc3d eff2 b0bc 8433 493e
00000180: 4bcf 8d3e b77a 0b3d ba27 203d 1411 af3d
00000190: 524d 573e 94ca 323d 3b68 cbbd 9a3a b13d
000001a0: 0d09 59bd 7996 843e 597d 1fbe 5c50 25bd
000001b0: 83b1 cf3d 6152 18bd a67a d2bc 7347 aa3d
000001c0: 22fe 14be 1cea 17be 9160 703e 6b50 223e
000001d0: ce0b 513e a826 0e3e 0b14 b83c 9ec6 483c
000001e0: e45d e23d 5fd7 93bd 5557 323e 0870 f83c
000001f0: 9c81 7b3e b825 18bd 7636 553d 0e61 0dbe

decoder_lin.2.weight f4 [288, 128]
0.024503253 0.044074293 0.0064822463 0.057660624 1.35288865e-05 0.044982422 0.027011016 0.038028434
0.03476578 -0.023304766 0.047504716 0.008966985 -0.06545367 0.08075588 0.06008533 -0.0059000496
0.020529678 -0.08209238 -0.030851813 0.0103486655 0.0818054 -0.005303419 0.068726614 0.0750204
0.06331566 -0.028150072 0.07249871 -0.01215834 0.05135178 -0.005263412 0.051621456 -0.0026638596
0.014789741 -0.03229496 0.043095287 -0.0040246043 0.056860328 0.0061378093 -0.05665434 -0.031528577
0.015529486 -0.061917778 -0.0410879 -0.06845332 0.0003469513 0.0005518049 0.05959582 -0.06748619
0.0057973657 -2.4044903e-07 -0.0029394405 0.023707101 0.0044774753 -0.020689195 0.028620543 -0.014303533
0.080166206 0.060385298 -0.059793975 0.008865515 4.402288e-07 -0.06367333 -0.03193273 0.09039921
0.025060678 -0.05230275 0.010956517 0.017466726 0.0029991358 0.0288929 -0.006155014 -0.038842816
0.01912952 -0.0662244 0.045598675 0.026393896 -0.030283533 0.008805531 -3.3353634e-05 0.03614049
-0.024711223 -0.052964162 0.0064692735 0.013773254 -0.016499575 -0.002890944 4.0125525e-07 -0.037660304
0.007008232 0.0032189975 -0.06042239 -0.027915375 0.02843198 0.0722117 -3.6361234e-05 -0.06522131
-0.008884239 0.0077064815 -0.014561924 0.051284663 -0.034819838 0.04056511 -0.052172374 -0.06688966
0.017423188 -0.02565939 -0.025704233 -0.023242349 0.0749196 0.0055092867 0.0060432814 -0.08159817
-0.008225868 0.0505188 -0.05185588 0.027622042 -0.06405617 -0.07867229 0.0051873974 -0.02035612
-0.017568 0.06615229 -0.014056666 0.0016758018 -0.011559616 0.013761512 0.0006857214 -0.0091114985
-0.018683005 -8.94856e-06 -1.6418118e-05 -0.023612857 0.044344407 0.04380299 5.9456298e-08 8.0545414e-07
0.009206902 0.02270427 0.05369069 2.1465232e-05 0.042839948 0.051145013 -0.03735913 -2.4744068e-06
0.00014249126 0.026095921 -0.07188286 0.036659036 -0.08614264 -9.1153197e-07 -0.011226006 0.009687839
-1.00494635e-05 8.281114e-06 -0.05683425 2.8914334e-05 1.4591046e-07 0.033226635 5.0968383e-06 1.2669666e-06
5.491304e-07 -0.08145626 -0.022881394 -5.4827706e-06 0.045383632 -0.06408735 -0.07792509 0.070746526
1.0372592e-06 -0.03665405 8.7737817e-07 -0.013754878 4.0446255e-07 7.470516e-07 -0.03572043 0.0493041
0.007018873 4.205364e-07 -0.086018726 0.005083859 -0.004079096 -6.281628e-07 8.5013994e-08 0.00027297958
-0.043720126 0.041661713 -0.04219108 -0.028494816 -1.9916886e-05 0.044472814 -0.0039149667 -0.06043496
-3.120438e-05 0.051097777 -1.30006065e-05 -0.044238843 7.5802864e-06 2.4147025e-06 -2.2063092e-05 -0.06354506
2.23412e-07 -0.0065884087 0.008625168 -0.018655537 -0.005505673 0.0058062063 -0.00030807286 -0.018631192
-0.005584546 -0.015497394 8.024293e-06 -0.01327473 0.006382079 7.521766e-07 -1.5989728e-07 2.4875185e-06
1.9347548e-05 -6.430413e-06 -4.113748e-06 0.0006701711 0.00013288416 0.02477142 -1.8291754e-05 -0.049087126
0.014632232 9.452307e-07 -0.0012000187 0.025020957 -0.06566368 4.403288e-07 -7.0650262e-06 -0.04033521
-9.4711913e-07 -0.002209554 5.2404516e-06 5.6613635e-07 0.05292445 5.835922e-05 -4.677362e-08 0.013268272
5.839597e-07 -0.05462701 -0.059602264 0.035667576 0.059659764 0.0014290332 -7.743576e-06 1.2168724e-06
0.067733884 -0.03855362 0.03851065 6.418207e-06 0.021555966 -0.000105902946 -8.1874605e-06 7.078904e-07
00000000: 0cbb c83c 3f87 343d 0669 d43b 8c2d 6c3d
00000010: 20fa 6237 7d3f 383d 3546 dd3c b4c3 1b3d
00000020: 9066 0e3d a3e9 bebc 4e94 423d 43ea 123c
00000030: 930c 86bd 5763 a53d 091c 763d 3455 c1bb
00000040: db2d a83c 0d20 a8bd f1bc fcbc 738d 293c
00000050: 9789 a73d 4ec8 adbb 8ac0 8c3d 4ca4 993d
00000060: a4ab 813d fb9a e6bc 347a 943d c633 47bc
00000070: 3e56 523d b378 acbb 0571 533d 2694 2ebb
00000080: ab50 723c b847 04bd af84 303d d4e0 83bb
00000090: 60e6 683d ad1f c93b 620e 68bd 1c24 01bd
000000a0: 636f 7e3c 7f9d 7dbd c94b 28bd 4131 8cbd
000000b0: 04e7 b539 00a7 103a bf1a 743d 3336 8abd
000000c0: d4f7 bd3b 1017 81b4 a1a3 40bb 6535 c23c
000000d0: c9b7 923b 637c a9bc a175 ea3c 5e59 6abc
000000e0: 2e2e a43d 9356 773d 87ea 74bd aa40 113c
000000f0: 9658 ec34 2a67 82bd e5cb 02bd 3923 b93d
00000100: 0d4c cd3c 693b 56bd f782 333c 6116 8f3c
00000110: 268d 443b ceb0 ec3c 00b0 c9bb a519 1fbd
00000120: 83b5 9c3c a9a0 87bd adc5 3a3d 0338 d83c
00000130: 2c15 f8bc 1345 103c 31e5 0bb8 0d08 143d
00000140: 316f cabc f3f0 58bd 33fc d33b 37a9 613c
00000150: 1e2a 87bc fe75 3dbb 1a6c d734 b141 1abd
00000160: 50a5 e53b d1f5 523b 787d 77bd c9ae e4bc
00000170: 2fea e83c bae3 933d 9482 18b8 c092 85bd
00000180: 338f 11bc a786 fc3b 2395 6ebc de0f 523d
00000190: 3f9f 0ebd 9a27 263d b3b2 55bd 72fd 88bd
000001a0: 13bb 8e3c a433 d2bc af91 d2bc bd66 bebc
000001b0: 726f 993d 3f87 b43b b806 c63b f11c a7bd
000001c0: cbc5 06bc cdec 4e3d d566 54bd 9f47 e23c
000001d0: e22f 83bd f01e a1bd 0bfb a93b e1c1 a6bc
000001e0: c4ea 8fbc da7a 873d ee4d 66bc 94a6 db3a
000001f0: 8b64 3dbc f777 613c fcc1 333a 6548 15bc
00000200: 1a0d 99bc c621 16b7 a4b9 89b7 c06f c1bc
00000210: 7ba2 353d c46a 333d e45c 7f33 6336 5835
00000220: 8cd8 163c 4efe b93c c5ea 5b3d 3c10 b437
00000230: f178 2f3d 6f7d 513d e305 19bd fc0d 26b6
00000240: b569 1539 1dc7 d53c 5237 93bd c927 163d
00000250: 8d6b b0bd 00b0 74b5 48ed 37bc beb9 1e3c
00000260: 1e9a 28b7 1def 0a37 08cb 68bd 0f8d f237
00000270: 90ab 1c34 a718 083d 8205 ab36 a40c aa35
00000280: f467 1335 8ad2 a6bd c371 bbbc a4f8 b7b6
00000290: 30e4 393d 3b40 83bd 3197 9fbd 8ee3 903d
000002a0: f437 8b35 8f22 16bd f884 6b35 245c 61bc
000002b0: e924 d934 ff88 4835 964f 12bd 19f3 493d
000002c0: 93fe e53b 15c6 e134 962a b0bd 8096 a63b
000002d0: f0a9 85bb 059f 28b5 f090 b633 b31e 8f39
000002e0: e013 33bd 79a5 2a3d 8ed0 2cbd f66d e9bc
000002f0: 3013 a7b7 2029 363d 1f49 80bb a68a 77bd
00000300: 73e1 02b8 e74b 513d 2e1d 5ab7 ca33 35bd
00000310: 2a5a fe36 460c 2236 2114 b9b7 ea23 82bd
00000320: 06e3 6f34 94e3 d7bb 9450 0d3c 7fd3 98bc
00000330: ef68 b4bb fd41 be3b d784 a1b9 71a0 98bc
00000340: 91fe b6bb c8e8 7dbc 13a0 0637 417e 59bc
00000350: c220 d13b 2fe9 4935 3bb0 2bb4 3eef 2636
00000360: 8b4c a237 d4c4 d7b6 d408 8ab6 6cae 2f3a
00000370: d256 0b39 6fed ca3c 3e71 99b7 950f 49bd
00000380: 07bc 6f3c c2bb 7d35 f249 9dba c0f8 cc3c
00000390: ae7a 86bd 5466 ec34 1d10 edb6 8836 25bd
000003a0: 883d 7eb5 2ace 10bb 23d7 af36 98f8 1735
000003b0: 4fc7 583d bcc6 7438 24e4 48b3 2b63 593c
000003c0: 68c1 1c35 92c0 5fbd 8121 74bd 2a18 123d
000003d0: cc5d 743d 664e bb3a 68ea 01b7 6b53 a335
000003e0: 10b8 8a3d 67ea 1dbd 58bd 1d3d fa5b d736
000003f0: 2396 b03c 3618 deb8 e05c 09b7 dc05 3e35

decoder_lin.2.bias f4 [288]
0.08344998 0.014245124 0.024330914 -0.05474762 -0.018275566 0.04264165 -0.014476284 0.063805275
-0.0116144745 -0.005250601 -0.00208452 -0.0031144922 -5.7772268e-06 0.06640991 0.06149673 -0.01605899
-0.05160057 0.08736248 0.061431065 -0.011310474 -0.0069594793 0.078560844 0.06439227 -0.0060453154
-0.0035417683 0.047554232 -0.029765988 0.07868085 -0.0067699957 0.022215523 -0.0119280685 -0.004474642
-0.0013314473 0.000952719 -0.011010584 -0.019294536 0.08472317 -0.009798314 -0.00038663033 0.069178246
-0.003904412 -0.015294591 0.0025589615 -0.00018736011 0.040209413 0.08798759 -0.03501197 0.024053259
-0.0010496017 0.011234694 -0.026927872 0.024817888 0.04411974 -0.0013706842 -0.0021587007 0.016029911
-0.00042019723 -0.04675201 0.059606865 -0.009550968 -0.055178333 0.014285431 0.05540358 0.04403498
0.061780237 -0.059928246 -0.0041056657 -0.0033052093 1.3628928e-06 0.07935558 -0.029745117 -0.0026391991
0.05390405 0.07818577 0.015138952 0.079060644 0.0584331 0.012692035 -0.0062839785 -0.018103711
-0.0035367731 2.7270313e-05 -0.02388394 -0.00012645956 0.07516114 -0.01176987 -0.0149714025 0.0042037047
0.03783357 0.066932864 -0.0013307323 -0.00024146702 0.045523565 -0.010723734 -0.04048573 -0.01379768
0.08650931 -0.024402052 -0.0076653776 -0.0002833319 -0.010148996 -0.0015414815 0.010341798 0.018505782
0.056909796 -0.008188284 -0.002022154 -0.0065855053 -0.023049777 -0.0007612159 -0.048965026 0.0034719207
0.00925723 -0.016641682 0.00021703739 0.06154065 -0.020478133 0.06347572 0.022926126 -0.047325242
-0.05398752 -0.089305826 -0.001955011 -0.023137946 -0.033803668 -0.064855866 -0.013719201 -0.00029927213
-0.018675596 -0.013274791 3.3872218e-06 -0.047570027 -4.4652686e-05 -0.02566532 0.06487208 -4.4361943e-07
-0.004173439 0.042337444 -0.008601657 -0.03161267 -0.0063212593 0.07066361 -0.0003473353 -0.03319451
0.093150906 -0.009494075 -0.00031462015 -0.0032936553 -0.05919876 0.034645002 0.020767488 0.065917015
-0.022947999 -0.021595173 0.090172485 0.037299328 -0.01241911 0.022695415 -0.020889286 2.955481e-06
-0.025649162 0.10667991 0.004591269 -0.047983896 -0.014661756 0.07332357 -0.033041503 -0.008923721
-0.03231628 -0.08025864 -0.004602631 -0.0006701046 0.0118678175 -0.0069697746 -0.0089599835 -0.022965534
-0.05199572 -0.0034251814 0.030149797 -0.013149267 -0.009182999 0.049907543 0.052978512 -0.038931686
0.04370948 0.050290797 0.0101210615 0.038263302 -0.00094175217 -0.0195874 -0.009541392 -0.003393256
0.032003876 0.047349147 0.020705502 0.029597541 -0.042212106 -0.007294793 -0.0012272447 -0.016852736
0.04339609 0.028218593 0.08163124 0.048221685 -0.008273411 0.08111154 0.025040055 -0.015674388
0.049470183 -0.04836614 0.061183486 0.010011598 -0.055724543 0.062386673 -0.02758691 -0.0066586467
0.058321208 -0.028012542 0.045229696 -0.0094298795 0.027715545 0.016585175 0.05078092 -0.061408665
3.4620753e-05 -0.00083652954 0.08215469 0.022704823 0.018736621 0.0098566385 -0.012059667 -0.037719466
0.08266952 0.08372347 0.00772554 0.05952716 0.00061289035 -0.03188959 -0.023674833 0.08030374
0.0126997605 0.0001187943 0.007622162 0.06707372 -0.010834707 -0.05104271 0.08462376 -0.0078663565
-0.009460524 0.023839707 0.09277706 0.017371431 0.07130538 -0.009315627 -1.7987531e-06 0.06703698
00000000: d3e7 aa3d 6164 693c a051 c73c 0a3f 60bd
00000010: a4b6 95bc 03a9 2e3d f02d 6dbc 57ac 823d
00000020: a34a 3ebc 3c0d acbb 719c 08bb 821c 4cbb
00000030: 00da c1b6 eb01 883d ffe3 7b3d 258e 83bc
00000040: 1f5b 53bd 1aeb b23d 249f 7b3d 914f 39bc
00000050: 580c e4bb 82e4 a03d 18e0 833d c817 c6bb
00000060: 031d 68bb 3ac8 423d cdd7 f3bc 6d23 a13d
00000070: d7d6 ddbb 54fd b53c f26d 43bc 05a0 92bb
00000080: f583 aeba e4bf 793a bd65 34bc 930f 9ebc
00000090: 5783 ad3d 1c89 20bc a5b4 cab9 53ad 8d3d
000000a0: 2ae1 7fbb 2a96 7abc 40b4 273b 1976 44b9
000000b0: a0b2 243d d632 b43d b668 0fbd 570b c53c
000000c0: ca92 89ba b911 383c d797 dcbc e24e cb3c
000000d0: e7b6 343d 88a8 b3ba fd78 0dbb 2951 833c
000000e0: eb4d dcb9 097f 3fbd 5426 743d aa7b 1cbc
000000f0: ad02 62bd 710d 6a3c ddee 623d 065e 343d
00000100: 460d 7d3d 5277 75bd d288 86bb 369c 58bb
00000110: a4ec b635 2e85 a23d 08ac f3bc 6af6 2cbb
00000120: 7eca 5c3d dc1f a03d 5e09 783c 8cea a13d
00000130: 8c57 6f3d 41f2 4f3c d5e9 cdbb 3c4e 94bc
00000140: 35c9 67bb 8dc2 e437 41a8 c3bc 3b9a 04b9
00000150: 15ee 993d 6ad6 40bc 9d4a 75bc 3bbf 893b
00000160: 60f7 1a3d 1914 893d f76b aeba 4f32 7db9
00000170: eb76 3a3d 9ab2 2fbc 5dd4 25bd aa0f 62bc
00000180: cb2b b13d d0e6 c7bc d92d fbbb 2a8c 94b9
00000190: f947 26bc 890b caba a570 293c 7099 973c
000001a0: 3f1a 693d 2728 06bc 1d86 04bb 39cb d7bb
000001b0: e3d2 bcbc 568c 47ba 8d8f 48bd 2a89 633b
000001c0: a3ab 173c 2354 88bc 8894 6339 0c12 7c3d
000001d0: c2c1 a7bc 8fff 813d 92cf bb3c 1dd8 41bd
000001e0: 0522 5dbd f9e5 b6bd a41f 00bb ca8b bdbc
000001f0: b775 0abd 27d3 84bd 80c6 60bc a0e7 9cb9
00000200: 90fd 98bc 827e 59bc 0750 6336 cad8 42bd
00000210: 7549 3bb8 1440 d2bc a7db 843d 972a eeb4
00000220: 58c1 88bb 076a 2d3d f7ed 0cbc 497c 01bd
00000230: 9122 cfbb 15b8 903d 8e1a b6b9 f7f6 07bd
00000240: e7c5 be3d 098d 1bbc 9af3 a4b9 5eda 57bb
00000250: 667a 72bd ebe7 0d3d 9420 aa3c 80ff 863d
00000260: 71fd bbbc 5ce8 b0bc 5aac b83d 2ec7 183d
00000270: 8679 4bbc bceb b93c 0220 abbc c756 4636
00000280: 311e d2bc ff7a da3d 5b72 963b c38a 44bd
00000290: dd37 70bc ab2a 963d 8756 07bd cc34 12bc
000002a0: 135e 04bd a45e a4bd abd1 96bb f5a9 2fba
000002b0: 3c71 423c b562 e4bb e5cc 12bc 3722 bcbc
000002c0: 77f9 54bd 0279 60bb b5fc f63c 0670 57bc
000002d0: 4a74 16bc da6b 4c3d ffff 583d d576 1fbd
000002e0: b608 333d b9fd 4d3d cfd2 253c fbb9 1c3d
000002f0: ebdf 76ba c175 a0bc 8053 1cbc 6461 5ebb
00000300: 7f16 033d 2ef1 413d 969e a93c 8b76 f23c
00000310: 9ae6 2cbd 2909 efbb 80db a0ba c00e 8abc
00000320: 19c0 313d ae2a e73c 482e a73d 1a84 453d
00000330: 338d 07bc cf1d a63d cd20 cd3c 9367 80bc
00000340: 3fa1 4a3d 931b 46bd 899b 7a3d af07 243c
00000350: 6b3f 64bd 2b89 7f3d f2fd e1bc c730 dabb
00000360: 38e2 6e3d 8f7a e5bc c642 393d c87f 1abc
00000370: b60b e33c a2dd 873c a7ff 4f3d a787 7bbd
00000380: c035 1138 8c4a 5bba b840 a83d 77ff b93c
00000390: 8b7d 993c bd7d 213c e995 45bc ba7f 1abd
000003a0: a34e a93d 3677 ab3d 8726 fd3b c0d2 733d
000003b0: 60aa 203a a99e 02bd b9f1 c1bc 4a76 a43d
000003c0: a812 503c 3421 f938 54c3 f93b f25d 893d
000003d0: 0e84 31bc 2912 51bd 394f ad3d e4e1 00bc
000003e0: 5000 1bbc 7d4b c33c e601 be3d 884e 8e3c
000003f0: 8e08 923d 92a0 18bc b06c f1b5 af4a 893d

decoder_conv.0.weight f4 [32, 16, 3, 3]
0.052488543 -0.041367088 0.04504917 -0.07501357 -0.04821544 0.060439657 0.037988372 -0.0053287046
-0.100079 -0.013846037 0.07844228 -0.021945883 0.024481783 0.048872106 -0.04904298 0.057653956
-0.09482345 -0.030877024 -0.031625118 0.07760328 0.012487872 -0.014474699 0.030874375 0.0046720663
0.055000328 0.06754622 0.09469553 0.040410638 0.078847095 -0.06833435 -0.077806465 0.042438973
-0.07254056 -0.08088296 -0.015974311 -0.045564607 0.016103012 -0.03990855 -0.004270284 0.03353741
-0.08487132 0.039130196 -0.029438205 0.03212851 -0.079252176 -0.06884747 0.020922543 0.0735721
-0.051895123 -0.038679805 -0.004721105 0.030275151 -0.023334915 -0.002566258 -0.032824162 0.0127154095
0.057311837 -0.031255834 0.029886423 0.00669752 0.08194449 0.030353194 0.0076883403 0.0035634078
0.00012279491 0.033581674 0.06343086 0.033980705 0.038288273 -0.070781216 -0.069087416 0.011663295
0.015416529 -0.0071728528 0.020164352 0.05963951 -0.07664595 -0.105799295 0.015239568 -0.07199599
0.003925861 0.035312723 0.0108638145 0.056095015 0.0036376498 -0.07220293 0.052382108 -0.023546811
0.04981857 0.023043437 0.0035654572 0.037275195 -0.029643126 -0.0003468576 0.007943776 0.080863364
-0.045021776 -0.044962324 0.05407008 0.013123863 -0.0023813413 0.051955037 -0.033231582 0.008008069
0.035035927 -0.02624266 0.036947012 -0.022233518 -0.024203578 0.056222457 0.021473614 0.01695828
0.047197264 0.03897682 -0.013910324 0.12765427 0.028494898 -0.0025520925 0.0152740395 0.044230424
-0.08975321 0.011952241 0.02371107 0.061809644 -0.08838655 -0.055423643 -0.0517864 0.03577215
0.0050480464 -0.070650235 -0.019493349 0.064368516 0.049280364 0.09511835 -0.09149694 -0.0543562
0.025102226 0.04837196 0.08128661 -0.105224825 0.00904326 0.05289078 0.054469265 -0.08111589
-0.006425482 -0.08201856 -0.03904454 0.04231567 0.045960497 -0.05981184 -0.0042549223 0.033172246
-0.0051865517 -0.026459385 -0.008859428 -0.024624841 -0.00921303 0.13572094 -0.03974845 -0.071127996
0.07828294 -0.03371988 -0.0822104 -0.046949245 0.052486517 -0.028024534 0.08079165 -0.06945245
-0.06916758 -0.06100069 0.10239137 -0.06930922 -0.058525357 0.043238997 -0.05223169 0.10686718
-0.06775099 0.020299911 0.009417709 0.023861084 -0.021357512 -0.043238644 0.02108923 -0.00540225
-0.020517137 0.02625993 0.032041285 -0.046477277 -0.0019603185 0.023962988 -0.053603243 -0.038235135
-0.06785168 -0.06381177 0.003960899 0.05715645 0.019214986 0.009276553 -0.017993424 0.033726145
-0.013322138 0.026145836 -0.06139354 0.11839529 -0.0046778233 -0.013757454 -0.01900333 0.031944524
-0.052674312 0.04911312 -0.005322591 0.04485516 -0.0050094337 0.020969657 0.04397769 0.059109777
-0.05767106 -0.086122744 -0.017103797 0.0035358192 -0.014647177 0.029609479 -0.048943244 -0.049757995
0.017854352 -0.031947017 -0.0910048 -0.023279686 -0.036423016 -0.0019016768 0.09355846 -0.0036955865
-0.087171145 -0.093923844 0.053320073 0.074120946 -0.08488 -0.030614223 -0.008160491 0.049135316
0.08127309 0.08077193 0.019426065 -0.025943093 -0.06640312 0.035366923 -0.053811617 -0.10852699
0.05663359 -0.036559198 -0.073846966 0.06339135 0.025155626 -0.021716066 -0.000611287 0.04852093
00000000: 3afe 563d 8970 29bd 7a85 383d b7a0 99bd
00000010: 8e7d 45bd 938f 773d b299 1b3d 6a9c aebb
00000020: 38f6 ccbd 7dda 62bc 59a6 a03d dac7 b3bc
00000030: 058e c83c 1e2e 483d 4be1 48bd 8e26 6c3d
00000040: cc32 c2bd d0f1 fcbc 5789 01bd 78ee 9e3d
00000050: ee99 4c3c 4a27 6dbc 42ec fc3c 2218 993b
00000060: 0648 613d ac55 8a3d bbef c13d a085 253d
00000070: 967a a13d e1f2 8bbd ff58 9fbd 7dd4 2d3d
00000080: 2590 94bd f7a5 a5bd 8fdc 82bc f4a1 3abd
00000090: 77ea 833c 2677 23bd bded 8bbb 865e 093d
000000a0: 04d1 adbd fc46 203d 6428 f1bc 2f99 033d
000000b0: f74e a2bd e7ff 8cbd c165 ab3c f8ac 963d
000000c0: fb8f 54bd b76e 1ebd 80b3 9abb 9803 f83c
000000d0: dd28 bfbc aa2e 28bb a172 06bd 4b54 503c
000000e0: d1bf 6a3d 1e06 00bd 5fd4 f43c df76 db3b
000000f0: 83d2 a73d 43a7 f83c 79ee fb3b 1088 693b
00000100: 82c2 0039 f08c 093d 0ae8 813d 5a2f 0b3d
00000110: 2ad4 1c3d bef5 90bd b47d 8dbd 6817 3f3c
00000120: 9c95 7c3c 400a ebbb b62f a53c 8f48 743d
00000130: 8df8 9cbd 4dad d8bd 62af 793c a272 93bd
00000140: 82a4 803b 13a4 103d 24fe 313c e3c3 653d
00000150: a365 6e3b 21df 93bd 9f8e 563d 3ee5 c0bc
00000160: 8f0e 4c3d 97c5 bc3c 72aa 693b e0ad 183d
00000170: 24d6 f2bc 70da b5b9 9d26 023c b19b a53d
00000180: c168 38bd 6a2a 38bd 9778 5d3d 7905 573c
00000190: 4710 1cbb cece 543d d71d 08bd 4734 033c
000001a0: d581 0f3d d9fa d6bc c055 173d 1123 b6bc
000001b0: 9546 c6bc 8549 663d 6fe9 af3c 17ec 8a3c
000001c0: eb51 413d 28a6 1f3d 21e8 63bc cdb7 023e
000001d0: 226e e93c 0241 27bb f73f 7a3c f62a 353d
000001e0: 88d0 b7bd 55d3 433c b83d c23c 1c2c 7d3d
000001f0: 0204 b5bd e703 63bd fa1d 54bd d185 123d
00000200: 156a a53b 12b1 90bd 84b0 9fbc a4d3 833d
00000210: 35da 493d 69cd c23d bf62 bbbd 9ba4 5ebd
00000220: 2fa3 cd3c ad21 463d 9879 a63d 1d80 d7bd
00000230: 2e2a 143c 01a4 583d 2a1b 5f3d 1620 a6bd
00000240: da8c d2bb 59f9 a7bd 2bed 1fbd 3253 2d3d
00000250: 1341 3c3d 43fd 74bd e06c 8bbb 9fdf 073d
00000260: f3f3 a9bb 5ac1 d8bc 2227 11bc 09ba c9bc
00000270: 40f2 16bc 6efa 0a3e 45cf 22bd 8eab 91bd
00000280: ce52 a03d db1d 0abd ed5d a8bd da4d 40bd
00000290: 1afc 563d b593 e5bc 1876 a53d 163d 8ebd
000002a0: bba7 8dbd dcdb 79bd 91b2 d13d fef1 8dbd
000002b0: 49b8 6fbd 601b 313d e6f0 55bd 2edd da3d
000002c0: 08c1 8abd 004c a63c bc4c 1a3c 5278 c33c
000002d0: f3f5 aebc 011b 31bd 52c3 ac3c 5c05 b1bb
000002e0: 8e13 a8bc 111f d73c b93d 033d f55e 3ebd
000002f0: b078 00bb 074e c43c 138f 5bbd 729c 1cbd
00000300: d2f5 8abd bfaf 82bd 6eca 813b e21c 6a3d
00000310: bf68 9d3c affc 173c f266 93bc 6d24 0a3d
00000320: 1945 5abc cb2f d63c cb77 7bbd 3b79 f23d
00000330: 6d48 99bb f266 61bc dfac 9bbc 43d8 023d
00000340: 05c1 57bd d72a 493d 2169 aebb 0bba 373d
00000350: 2d26 a4bb 8fc8 ab3c f321 343d 181d 723d
00000360: 7d38 6cbd 1f61 b0bd 431d 8cbc 34b9 673b
00000370: b7fa 6fbc 948f f23c b678 48bd 0acf 4bbd
00000380: 4a43 923c e0da 02bd b960 babd 0ab5 bebc
00000390: 4d30 15bd af41 f9ba 949b bf3d a731 72bb
000003a0: c986 b2bd 255b c0bd 2666 5a3d b9cc 973d
000003b0: 91d5 adbd aeca fabc 94b3 05bc 1d42 493d
000003c0: 8172 a63d c16b a53d 6923 9f3c 9c86 d4bc
000003d0: 5cfe 87bd e8dc 103d 9269 5cbd 6643 debd
000003e0: a0f8 673d 19bf 15bd 143d 97bd 53d3 813d
000003f0: 2c13 ce3c e4e5 b1bc c73e 20ba e2bd 463d

decoder_conv.0.bias f4 [16]
-1.4775705e-05 5.1979474e-05 1.0753558e-05 -0.00025674922 0.00013086366 3.8708476e-05 7.978185e-06 -5.146587e-06
-5.7001403e-06 3.5414064e-07 1.6442034e-05 2.207057e-05 9.527728e-06 -3.4085984e-05 -9.3557674e-07 1.2339252e-05
00000000: 2be5 77b7 8904 5a38 2e6a 3437 4c9c 86b9
00000010: 7238 0939 e95a 2238 0bda 0537 d8b0 acb6
00000020: d543 bfb6 b820 be34 00ed 8937 3024 b937
00000030: 48d9 1f37 8cf7 0eb8 5824 7bb5 af04 4f37

decoder_conv.1.weight f4 [16]
0.9580102 0.9646642 0.9671514 1.0099473 0.9930994 1.0168091 1.0154066 0.9830246
0.9460324 1.0327024 0.999499 0.996099 1.013694 1.0329648 1.0071793 0.938591
00000000: 2840 753f 3cf4 763f 3c97 773f f445 813f
00000010: c33b 7e3f cd26 823f d8f8 813f 80a7 7b3f
00000020: 2e2f 723f 982f 843f 2bdf 7f3f 5800 7f3f
00000030: bac0 813f 3138 843f 40eb 803f 8047 703f

decoder_conv.1.bias f4 [16]
-0.02455706 -0.03647948 -0.031392474 0.01897823 -0.00037531 0.02710417 0.019384557 -0.012786327
-0.059067983 0.0404224 -0.011843107 0.024926677 0.020355238 0.064003736 -0.014659571 -0.024518296
00000000: e32b c9bc 826b 15bd 6595 00bd 3c78 9b3c
00000010: 41c5 c4b9 9009 de3c 5dcc 9e3c be7d 51bc
00000020: 45f1 71bd f591 253d 9709 42bc 0833 cc3c
00000030: 07c0 a63c 6414 833d b32e 70bc 98da c8bc

decoder_conv.1.running_mean f4 [16]
-0.013988251 0.003957792 0.010546791 -0.0108632725 -0.030964263 -0.008693101 -0.0011598589 0.0026013027
-0.025392631 -0.008195698 0.020415703 -0.007205279 -0.025064548 -0.0016026155 -0.008981659 -0.012895191
00000000: fa2e 65bc 5eb0 813b 73cc 2c3c defb 31bc
00000010: c4a8 fdbc 826d 0ebc 6806 98ba 9e7a 2a3b
00000020: 3504 d0bc 4047 06bc d53e a73c 431a ecbb
00000030: 2b54 cdbc da0e d2ba cf27 13bc 5a46 53bc

decoder_conv.1.running_var f4 [16]
0.0020508815 0.002643822 0.00080991065 0.001436538 0.00076936744 0.001497337 0.0015484104 0.001509026
0.0035774224 0.0014967439 0.00086054316 0.0021656798 0.0018071363 0.0019340101 0.0012493077 0.0026812055
00000000: 1568 063b f943 2d3b 2f50 543a 374a bc3a
00000010: 60af 493a 4b42 c43a 08f4 ca3a 83ca c53a
00000020: 3073 6a3b 642e c43a 1396 613a 14ee 0d3b
00000030: 6fdd ec3a 9c7e fd3a cfbf a33a 2ab7 2f3b

decoder_conv.3.weight f4 [16, 8, 3, 3]
-0.04281124 0.019572716 -0.024156252 0.044308174 -0.118504904 -0.053237315 -0.0075103263 -0.120963715
-0.13900496 -0.038180396 0.030367646 -0.101235315 0.027855026 -0.06533567 -0.16106246 -0.039621476
0.12727357 -0.09910536 -0.010166644 0.053825818 0.024237586 0.06784952 0.11011032 -0.091611326
-0.04700721 0.029914254 -0.07054574 0.10834968 -0.0063039763 -0.11338027 0.06935774 0.019588111
-0.14405836 -0.14808126 -0.0770198 -0.06042428 -0.026935602 0.028043885 -0.14710823 -0.022481857
-0.047718197 0.06993415 0.03447993 -0.11213411 0.0056243218 -0.04574469 -0.042498473 0.0046878755
-0.12218134 -0.019377243 0.1455522 -0.022512235 -0.0812691 0.039053958 -0.02706285 0.026377415
-0.09417175 0.052523226 0.03873495 0.07887303 -0.007740693 0.006829762 0.15149434 0.013428268
0.026534045 -0.054782882 -0.104548946 0.057107206 -0.09252408 0.056955043 0.030362595 0.028568415
0.043281484 -0.051835053 -0.1002116 0.07073514 0.087076806 -0.09279014 -0.015071388 0.08835909
-0.08480623 0.036859456 0.061322633 0.074830644 -0.034386594 -0.06587178 0.06780567 -0.02042645
-0.008572965 -0.041080672 0.03846865 -0.022986991 -0.064109154 -0.033258248 0.046596304 0.0018463477
0.099212185 -0.12223259 0.07418959 0.1640411 0.109032735 0.045419242 0.10853219 0.17675562
-0.03396401 -0.06165126 0.08141667 -0.03007262 0.009954138 -0.07639678 0.04971365 0.08066014
-0.018336805 -0.062197324 -0.078868076 0.12309514 -0.020347465 -0.04237942 0.07260715 -0.02115998
0.02370678 -0.047250632 -0.0780649 0.103845865 0.05399358 0.08446217 -0.096862234 -0.014790263
0.06451681 -0.03368602 0.08218455 -0.028066631 -0.08408405 0.13336399 -0.12825218 -0.06331006
-0.12907064 0.12025667 0.009375203 0.056804392 0.024714176 0.03545813 0.008492945 0.047256663
0.021286467 -0.04957769 -0.04175475 0.012211025 0.05313702 0.08234359 -0.07716899 0.08809268
0.04265344 -0.009945772 -0.13650756 -0.06290745 0.064973235 -0.024331545 -0.004173309 0.04153402
-0.06389264 0.11879005 0.00043137884 -0.046109986 0.015312213 0.048700586 -0.037819806 0.025435587
0.091859326 0.06556966 0.033370655 -0.09360086 0.016424615 -0.0040920214 0.06325737 0.057356887
0.12043756 0.04713414 -0.009575353 0.08401418 -0.014906448 0.058823224 0.045560636 0.05887922
0.11144674 0.045703903 0.11548655 0.04641176 -0.064362004 0.024289705 0.14903142 -0.042927787
-0.009950938 0.10323065 0.048430804 0.13578762 0.0330951 0.11412638 -0.080126904 0.009918595
0.018451443 0.07929344 0.07153957 0.032743935 0.035091653 0.10219299 -0.0675201 -0.023653753
0.009724059 -0.008123423 0.031849075 -0.022056429 -0.029657556 0.0056339847 0.07353066 -0.013704651
-0.02795758 0.036303528 -0.029222136 -0.1002303 0.08657212 0.1881591 -0.08647196 -0.07140425
0.075616434 0.033503696 0.043901008 -0.028093394 0.10952458 0.019119848 0.05780004 -0.029783662
0.12687589 0.13274395 -0.09617882 0.07661665 -0.040802028 -0.034586694 0.1514912 0.06480252
-0.061631586 0.01669062 0.16942987 -0.11876643 -0.014930408 -0.048442118 -0.07803207 0.068797715
-0.040340684 0.004758005 0.07286557 0.013749523 -0.049644217 0.0081889685 0.059917226 -0.0025016158
00000000: d75a 2fbd f656 a03c 55e3 c5bc 7d7c 353d
00000010: b3b2 f2bd 5f0f 5abd 2f19 f6bb d3bb f7bd
00000020: 5157 0ebe 0c63 1cbd 92c5 f83c 7654 cfbd
00000030: 3930 e43c b5ce 85bd 8fed 24be 214a 22bd
00000040: 0154 023e c0f7 cabd ff91 26bc 7678 5c3d
00000050: e78d c63c b0f4 8a3d 8581 e13d b89e bbbd
00000060: a28a 40bd bd0e f53c 497a 90bd 70e6 dd3d
00000070: 9691 cebb ea33 e8bd 6e0b 8e3d 3f77 a03c
00000080: 0984 13be 9da2 17be 8fbc 9dbd 737f 77bd
00000090: 0da8 dcbc 4abc e53c 8aa3 16be df2b b8bc
000000a0: 2874 43bd a339 8f3d d43a 0d3d 91a6 e5bd
000000b0: 3b4c b83b c95e 3bbd e112 2ebd c09c 993b
000000c0: 363a fabd 06bd 9ebc a30b 153e 946b b8bc
000000d0: 6a70 a6bd 0bf7 1f3d e9b2 ddbc 7315 d83c
000000e0: 1edd c0bd 9822 573d 8aa8 1e3d 2f88 a13d
000000f0: a4a5 fdbb 32cc df3b 5521 1b3e 3d02 5c3c
00000100: ed5d d93c 0464 60bd c21d d6bd 3fe9 693d
00000110: 447d bdbd b149 693d faba f83c 4f08 ea3c
00000120: ed47 313d fe50 54bd bd3b cdbd 96dd 903d
00000130: 5355 b23d c208 bebd fced 76bc 9cf5 b43d
00000140: e4ae adbd f1f9 163d 712d 7b3d cf40 993d
00000150: f5d8 0cbd c9e7 86bd b3dd 8a3d 5f55 a7bc
00000160: 9f75 0cbc 3544 28bd 4e91 1d3d 374f bcbc
00000170: a94b 83bd cd39 08bd c4db 3e3d 2601 f23a
00000180: c22f cb3d 1555 fabd b6f0 973d 64fa 273e
00000190: 8e4c df3d 8709 3a3d 2046 de3d 6dff 343e
000001a0: d91d 0bbd 0886 7cbd c8bd a63d db5a f6bc
000001b0: ae16 233c ea75 9cbd 8aa0 4b3d 2531 a53d
000001c0: 1137 96bc 9fc2 7ebd 9685 a1bd 4e19 fc3d
000001d0: baaf a6bc 0b96 2dbd 0fb3 943d b257 adbc
000001e0: b934 c23c e189 41bd 7ee0 9fbd 24ad d43d
000001f0: 5f28 5d3d 81fa ac3d b55f c6bd dc52 72bc
00000200: 6421 843d 5afa 09bd 6050 a83d feeb e5bc
00000210: 4234 acbd 9290 083e 8a54 03be b4a8 81bd
00000220: 182b 04be 2149 f63d 749a 193c b9ab 683d
00000230: 6275 ca3c 8b3c 113d fe25 0b3c 3490 413d
00000240: f560 ae3c fa11 4bbd 0707 2bbd c010 483c
00000250: 34a6 593d c2a3 a83d c70a 9ebd ef69 b43d
00000260: 60b5 2e3d 97f3 22bc a3c8 0bbe 9fd5 80bd
00000270: b010 853d f352 c7bc 41c0 88bb 941f 2a3d
00000280: 25da 82bd 3348 f33d b02a e239 d3dd 3cbd
00000290: 14e0 7a3c 447a 473d f1e8 1abd 4b5e d03c
000002a0: be20 bc3d 6349 863d abaf 083d cfb1 bfbd
000002b0: ea8c 863c 5d16 86bb 148d 813d 0eef 6a3d
000002c0: f8a7 f63d ba0f 413d f1e1 1cbc a00f ac3d
000002d0: 2d3a 74bc 9ff0 703d ca9d 3a3d 562b 713d
000002e0: 303e e43d 0434 3b3d 3684 ec3d 421a 3e3d
000002f0: 3ad0 83bd 34fb c63c b19b 183e 0cd5 2fbd
00000300: 4209 23bc 976a d33d 615f 463d e90b 0b3e
00000310: ba8e 073d 17bb e93d 9319 a4bd 9a81 223c
00000320: 7b27 973c 9964 a23d 5783 923d 811e 063d
00000330: 44bc 0f3d 8f4a d13d fa47 8abd 84c5 c1bc
00000340: a951 1f3c 1b18 05bc 2d74 023d afaf b4bc
00000350: 67f4 f2bc 4a9d b83b 3e97 963d 7989 60bc
00000360: 4b07 e5bc 02b3 143d 4363 efbc 8b45 cdbd
00000370: b94c b13d c7ac 403e 3618 b1bd 643c 92bd
00000380: cadc 9a3d 2c3b 093d 8bd1 333d 1e24 e6bc
00000390: 6c4e e03d 3aa1 9c3c bcbf 6c3d defc f3bc
000003a0: c1eb 013e 08ee 073e 67f9 c4bd 31e9 9c3d
000003b0: 0720 27bd c7aa 0dbd 8220 1b3e 2fb7 843d
000003c0: 6771 7cbd c4ba 883c 067f 2d3e d03b f3bd
000003d0: ac9e 74bc 3e6b 46bd 47cf 9fbd d1e5 8c3d
000003e0: 463c 25bd 0ae9 9b3b 8b3a 953d ae45 613c
000003f0: bc57 4bbd 062b 063c c46b 753d 26f2 23bb

decoder_conv.3.bias f4 [8]
-0.00079867983 -0.005477528 4.973832e-06 1.4314642e-05 0.0013473652 -1.4368956e-05 -0.0030350282 0.0036166967
00000000: 7f5e 51ba d67c b3bb e4e4 a636 eb28 7037
00000010: 139a b03a 3212 71b7 53e7 46bb 1a06 6d3b

decoder_conv.4.weight f4 [8]
1.2169931 1.0714766 1.2027506 1.2090346 1.1888927 1.1077036 1.0119673 1.197553
00000000: 6ec6 9b3f 2526 893f bbf3 993f a5c1 9a3f
00000010: a32d 983f 3bc9 8d3f 2588 813f 6b49 993f

decoder_conv.4.bias f4 [8]
0.2081134 0.03053747 0.20493628 0.20068355 0.18172 0.07090601 -0.018973008 0.19113529
00000000: ae1b 553e b729 fa3c d1da 513e fd7f 4d3e
00000010: cf14 3a3e 2c37 913d 486d 9bbc f8b8 433e

decoder_conv.4.running_mean f4 [8]
0.03150928 0.16826871 0.099980995 0.049439803 0.099138 0.19363156 0.09516077 0.122299254
00000000: e00f 013d a24e 2c3e d6c2 cc3d 6481 4a3d
00000010: dd08 cb3d 5a47 463e a6e3 c23d 0878 fa3d

decoder_conv.4.running_var f4 [8]
0.042436033 0.11862743 0.053149894 0.045072716 0.06035534 0.06587844 0.054054797 0.04689221
00000000: 68d1 2d3d f0f2 f23d b4b3 593d 2b9e 383d
00000010: 2937 773d 47eb 863d 9068 5d3d 0c12 403d

decoder_conv.6.weight f4 [8, 1, 3, 3]
-0.2859719 0.06532922 -0.2546318 -0.19293746 -0.39501494 -0.1961314 0.04289172 0.06443978
-0.35988665 -0.2509902 0.10823201 -0.058733683 -0.25984573 -0.21366383 -0.32515198 0.11082661
0.021399384 0.042404596 -0.08004808 -0.4825541 -0.24379733 0.13028121 -0.22777036 -0.4697186
0.10575761 -0.19948363 0.06330581 -0.10087779 -0.17912516 -0.20646921 -0.20254403 -0.2357934
0.11475504 -0.24652125 -0.14527611 -0.19054651 -0.32674557 -0.080632895 0.09472087 -0.27072743
-0.24472865 -0.28417996 -0.0877022 -0.15785488 -0.3268259 0.16769466 -0.20752025 0.16247067
0.048353266 -0.44081604 -0.24384478 -0.03410538 -0.04947356 -0.054773644 -0.3702405 -0.15122017
-0.36516422 0.08220724 0.045401536 -0.031753186 -0.28959408 0.06211878 -0.1359571 -0.33376363
-0.17753017 -0.3873715 0.01861636 -0.45704305 -0.20714419 0.09749251 -0.20475656 0.058522485
00000000: e96a 92be 53cb 853d 195f 82be 6691 45be
00000010: 663f cabe abd6 48be 3aaf 2f3d 01f9 833d
00000020: 1043 b8be ca81 80be bea8 dd3d bb92 70bd
00000030: 800a 85be b1ca 5abe 527a a6be 10f9 e23d
00000040: c34d af3c 71b0 2d3d 3ff0 a3bd 5511 f7be
00000050: 02a6 79be 7068 053e a23c 69be f57e f0be
00000060: 7297 d83d 7045 4cbe 7aa6 813d 0499 cebd
00000070: 966c 37be aa6c 53be b467 4fbe d373 71be
00000080: b104 eb3d 1170 7cbe 43c3 14be a01e 43be
00000090: 324b a7be dc22 a5bd 04fd c13d c99c 8abe
000000a0: 269a 7abe 0980 91be 369d b3bd b6a4 21be
000000b0: b955 a7be 26b8 2b3e 3080 54be b65e 263e
000000c0: 130e 463d a4b2 e1be 72b2 79be 15b2 0bbd
000000d0: caa4 4abd 545a 60bd 2a90 bdbe 76d9 1abe
000000e0: cef6 babe 455c a83d f6f6 393d a10f 02bd
000000f0: ad45 94be 4370 7e3d 5738 0bbe 11e3 aabe
00000100: 78ca 35be 8f55 c6be 5681 983c 8c01 eabe
00000110: 9b1d 54be 27aa c73d b4ab 51be 46b5 6f3d
