timothe/models/encoder.pth (torch, 182584 bytes, 14 tensors)

encoder_cnn.0.weight f4 [8, 1, 3, 3]
000000 5c aa 29 bd 6a 44 01 be 26 63 28 be d5 b7 4a bd
       -0.041422233 -0.12623754 -0.16444072 -0.049491722
000010 2a e3 ee bd 29 93 1f be 36 4c a6 3b d3 57 93 3c
       -0.11664422 -0.15583481 0.005075003 0.017986214
000020 ff c6 e7 bc da 4f b0 3d 6f 09 86 3c d7 12 1b bc
       -0.02829313 0.086089805 0.01636192 -0.009464941
000030 71 a7 e6 3c b0 68 76 bd c4 ec ab bb 23 16 71 3d
       0.028156014 -0.06015843 -0.0052467305 0.058859
000040 a2 65 9e 3d 67 31 be 3d 10 bd c1 bd f9 d9 6b bd
       0.07734229 0.092867665 -0.09459889 -0.05758092
000050 e5 9a 4f 3d 82 52 32 bd 48 1b 1a 3d 4c 77 ee 3d
       0.05068483 -0.043535717 0.037623674 0.11643848
000060 29 6e 0e bd af e7 c3 bc f3 aa 01 3d c5 24 05 be
       -0.034773026 -0.023914186 0.03165717 -0.13002308
000070 0c f1 ef bd 05 64 fa bd bf 8e d5 bd ae e6 7a bd
       -0.11715898 -0.122261085 -0.10427617 -0.06125515
000080 e5 57 05 be 04 0d c3 bd 69 e4 e8 bd 1f a6 11 be
       -0.1302181 -0.09523967 -0.11371691 -0.14223526
000090 a4 69 03 3c 12 e1 36 3d e0 1a 4b bd 22 d4 59 3c
       0.008020792 0.044648238 -0.049586177 0.013295205
0000a0 90 7d bf bb 95 da 2f be 3b 62 3a bd 39 e1 fd bd
       -0.0058438256 -0.17173226 -0.045503836 -0.123964734
0000b0 3b 5a 41 be 28 af c0 3b 88 f7 8d 3d 57 60 f8 3c
       -0.18882076 0.0058802553 0.069319785 0.030319376
0000c0 0a ce a0 3d cf 92 79 3e 60 f5 0b 3e be f4 de 3d
       0.07851799 0.2437241 0.13667822 0.108865246
0000d0 fa c9 7f 3e 9f 53 ed 3d d3 d2 b1 3c 3a ef 88 bd
       0.24979392 0.11588215 0.021706974 -0.06686254
0000e0 8b 82 ec bd 5e 35 c5 3d df e2 4e bd 1b 92 39 be
       -0.115483366 0.096293196 -0.05050933 -0.18122141
0000f0 2b 41 ae 3d 7d 61 d4 bc 7e ce 02 be de 73 1b 3e
       0.085085236 -0.025925392 -0.12774083 0.15180919
000100 d2 a6 29 3e c3 55 07 3d 7f 1f 5d 3e 19 0a 46 3e
       0.16567543 0.033040773 0.21594046 0.1933979
000110 ee 9c 0a 3d e8 e4 d2 3d 3b be 5d 3d ad 65 83 bb
       0.033841066 0.10297567 0.054136496 -0.0040099234

encoder_cnn.0.bias f4 [8]
000000 23 4a 46 3e 7e b0 a5 3e 4d 31 ac 3e 1a 8d d9 3e
       0.19364218 0.32361215 0.33631364 0.42490464
000010 e1 68 12 3e 2b 7f a4 be c3 62 1c 3e 65 49 97 be
       0.1429782 -0.3212827 0.1527205 -0.29548183

encoder_cnn.2.weight f4 [16, 8, 3, 3]
000000 e9 89 91 3c 44 10 4a bd 3f 1a 1c bd 52 44 41 bd
       0.017765956 -0.04933192 -0.038110968 -0.047184296
000010 27 8f e4 bc f9 c7 a2 bd 78 01 f7 bc 2a ae 99 bd
       -0.027900292 -0.07948298 -0.030152068 -0.07503922
000020 f9 0e 9a bd ca 57 0b bd d0 95 3c 3d 07 18 93 3c
       -0.07522387 -0.03401927 0.04604131 0.017955793
000030 de e2 c7 3d f7 fe 8e 3d 60 0c 02 bd 5c bc 2d bc
       0.09760068 0.069822244 -0.031750083 -0.01060399
000040 e2 2b 09 3c cb 11 8d 3c 41 47 9f bc 5f d4 1e bc
       0.008372279 0.017220398 -0.019443156 -0.009694188
000050 d1 7d 0e 3c ac 27 22 3d c4 1f e9 3d cb d9 25 be
       0.008696989 0.039588615 0.11383012 -0.16196363
000060 c1 4b c4 bc 12 03 80 bd 7d 78 0c be 1c 83 1e bd
       -0.023961904 -0.062505856 -0.13717838 -0.038699254
000070 79 46 ba 3c 3f 4d ac 3d d4 ea 62 3d a4 36 0d 3d
       0.022738682 0.08413171 0.05539973 0.034475937
000080 48 19 b3 3d 7c dd 6e 3d d2 23 46 3d 46 e5 a0 3d
       0.087450564 0.058316693 0.048374005 0.078562304
000090 15 af f4 bb 32 4b 72 bc 70 fc 43 3b 74 fb 01 bd
       -0.0074671605 -0.014788436 0.0029905103 -0.031733945
0000a0 11 0b 30 3d 1b 1a 11 bd d5 78 54 bd 0e 21 1a bc
       0.042979304 -0.035425287 -0.051873047 -0.009407295
0000b0 cc 7e 05 bd f9 16 d2 bc 45 37 cb bd 51 35 ad bd
       -0.032591626 -0.02564572 -0.09922651 -0.08457435
0000c0 a2 51 c4 bd 89 fc 3a bd a4 ba 73 bd 2d af 71 bd
       -0.09585883 -0.045650993 -0.059504166 -0.05900495
0000d0 5b f9 7d bd cf 34 3a bd 21 ff 02 3c 22 fe 41 bc
       -0.062005382 -0.04546052 0.007995398 -0.011840375
0000e0 0c 7a 7b bb 66 64 8c 3c 02 77 6d bb 70 c5 36 bd
       -0.0038372306 0.017137717 -0.0036234264 -0.044621885
0000f0 77 d0 18 bb aa 5b 10 bd 2d 06 ea bc e2 cf 35 3d
       -0.0023317614 -0.035243668 -0.028567398 0.044387706
000100 f2 d0 04 3d 55 7e 2e 3b ed b2 bf 3c 98 48 36 bd
       0.03242583 0.0026625593 0.023400748 -0.044502825
000110 d4 02 28 bd 2b 91 38 bd 1b 36 38 bd 32 9a 38 bd
       -0.041018322 -0.045060318 -0.044973474 -0.045068927
000120 a4 5a 6d bd 16 97 58 bd 50 13 c9 bc 22 4b 95 bd
       -0.05794777 -0.05287846 -0.024545342 -0.07289721
000130 03 c2 b8 bd 5b f8 93 bd 61 7c 94 bd 7f 78 bc bd
       -0.0902138 -0.072251044 -0.07250286 -0.0920267
000140 41 df 4f bd d5 ad 3c 3d 7e 9b 3e 3c ba 10 1e 3d
       -0.05075002 0.046064217 0.011633752 0.03859017
000150 6d eb 71 3d ac d5 6d 3c 79 62 ca 3d 63 fc ee 3c
       0.05906241 0.014516275 0.098820634 0.029173082
000160 84 50 31 3d 0f c3 b2 3d d9 dc 01 3d a1 23 6f bd
       0.043289676 0.08728611 0.031704757 -0.058383588
000170 30 bc 61 3d 3d d2 9d 3b 60 6f 06 be a1 b9 99 3d
       0.05511111 0.004816322 -0.13128424 0.07506109
000180 e3 2a d4 bc 28 ea b8 bd 1d c8 a9 3d e4 1d 27 3d
       -0.025899356 -0.09029037 0.08290122 0.04079999
000190 fd fa 02 3e 99 21 23 bc 9a 10 2a 3d eb 22 90 3d
       0.12791057 -0.009956741 0.04151974 0.0703791
0001a0 8f 53 cd 3c be f2 9e 3d e1 da a8 3d 97 fc bf 3c
       0.025064258 0.07761143 0.08244873 0.023435874
0001b0 6b 8b 32 bd 89 86 09 bd 27 2b 78 bc 99 8b a1 bc
       -0.04358999 -0.03357557 -0.015147007 -0.019719886
0001c0 36 ed 06 bd 44 f2 97 bc cd 8b 00 bd 9d af 12 bd
       -0.032941066 -0.018548138 -0.031383324 -0.03581201
0001d0 48 1e c2 bb fb 58 7c bd 6e 5e 96 bd ef 2b 43 bc
       -0.00592402 -0.061608296 -0.0734223 -0.01191233
0001e0 63 c0 6b bd 37 73 a5 bd 74 9b b2 bc 27 45 1d bd
       -0.05755652 -0.08078616 -0.021802641 -0.038396027
0001f0 dd 7c c8 bd bf b1 ff 3a 32 c5 02 3d f7 ec b6 bc
       -0.09789441 0.0019507929 0.03192634 -0.02232979
000200 bd 53 9a 3d 39 1e 56 3d 09 a8 47 bc 48 90 ba 3d
       0.07535503 0.052274916 -0.012186059 0.09109551
000210 b3 8b 1a 3d e6 c0 03 3d 75 32 50 3d 54 43 ae 3c
       0.037730884 0.032166384 0.05082937 0.021272339
000220 b6 54 b6 bd 2a ba 0b bd b5 3c 07 bc c5 c5 95 bd
       -0.08902876 -0.034113087 -0.00825422 -0.07313112
000230 b3 b8 9b bd 58 9c 9a 3c ad 9c 34 bd a8 63 37 bd
       -0.07603588 0.018873379 -0.04409473 -0.044772774
000240 a3 70 89 bd ab 2a 1e bd d6 ac 00 bd 1b 45 51 bd
       -0.06710937 -0.03861491 -0.03141483 -0.051091295
000250 be 7f 5e bc b4 3c 1d 3d e2 16 93 3c c2 fe a7 3d
       -0.013580261 0.03838797 0.017955247 0.08202888
000260 78 80 bf 3c 88 29 01 3e 63 bb f4 ba 93 42 2a 3c
       0.023376688 0.12613499 -0.0018671568 0.010391849
000270 2b cf 59 3d 0a f6 6d 3d 44 21 50 bd 87 c6 bf 3c
       0.053176086 0.05809597 -0.050812975 0.023410095
000280 eb ab 8f bd 9d 92 b8 bd b4 3e 48 3d 19 14 cf 3c
       -0.070152126 -0.09012339 0.048887923 0.025278138
000290 62 a5 21 3d 2e 0c 98 3c 5f f7 8f bc 88 e0 73 bc
       0.039464362 0.018560495 -0.01757401 -0.014885075
0002a0 af 7a 08 3d 39 23 b0 bb 25 2e 99 bd 44 7f 7d 3d
       0.033320125 -0.0053752926 -0.074795045 0.061888948
0002b0 7c 07 3e 3d 03 4f 1c bc b0 54 5a 3d ea 3b 03 bd
       0.046393856 -0.009540322 0.05330342 -0.03203956
0002c0 04 35 db bd 7c a1 62 bd 6b 2c d8 bd 8a f1 9b bc
       -0.10703471 -0.055329785 -0.10555347 -0.019036073
0002d0 13 2f 18 3b ce 03 29 3d 6c c8 f4 3c 06 e0 1e 3d
       0.0023221418 0.041263394 0.029880725 0.038787864
0002e0 b3 60 e4 3d 76 ad 12 3d e8 fa 8c 3d 95 c2 91 3d
       0.111512564 0.035809956 0.06883794 0.07117192
0002f0 a1 4a e2 bc 67 18 d0 bd 30 73 cf bd 2d 92 ab bb
       -0.027623476 -0.101609044 -0.10129392 -0.0052359314
000300 58 95 39 bd 99 72 0b ba e1 79 83 3c 97 a0 46 bd
       -0.04530844 -0.00053195056 0.016049327 -0.048492994
000310 6a 99 99 3c b9 41 bd bc 71 52 77 bc d9 e5 bf 3c
       0.018749911 -0.023102628 -0.015095339 0.02342503
000320 44 59 06 3d 28 eb e8 bc 37 b0 fb bc 5d 04 cc bc
       0.032799974 -0.028432444 -0.030723674 -0.024904424
000330 3d f8 05 bd 62 ee 70 bd af f9 b1 bc 8a be 38 bd
       -0.03270744 -0.05882109 -0.021725504 -0.045103587
000340 02 08 05 be 18 b4 06 3d 99 5e c0 bd 44 f9 43 be
       -0.12991336 0.032886595 -0.09393043 -0.19138056
000350 88 38 ff 3c 59 eb df 3c 36 70 9e bb 0a 37 5f 3c
       0.031154886 0.027333902 -0.004835154 0.013623962
000360 d6 cd db 3c 1c 6e 83 bc 9d 84 40 bd b7 31 94 3c
       0.026831549 -0.016043715 -0.04700147 0.018090112
000370 20 fc 21 3e 8d cd 8f 3d fb 26 21 3c 93 71 a7 3d
       0.15818834 0.070216276 0.009835954 0.081759594
000380 fb e7 39 3d 31 dd a4 3c 6e 3b 0b 3e ea 4a 06 3d
       0.04538725 0.020125004 0.1359689 0.032786287
000390 2b 17 a8 bc 76 13 34 bc be 8a 21 bb d7 36 9d 3c
       -0.02051886 -0.010990968 -0.0024649347 0.019191189
0003a0 23 42 8a bd 8d 7c 8a bd 36 4a 39 3d dc 47 db 3d
       -0.06750896 -0.067620374 0.04523679 0.107070655
0003b0 96 08 a8 3c 8c ff 6e bc f0 d9 e7 3d 00 cd 43 3d
       0.020511907 -0.014587294 0.11320865 0.047802925
0003c0 30 48 ac bc 86 3d 34 3d 23 12 49 3c 59 a4 bd bc
       -0.021030515 0.044003986 0.012272391 -0.023149656
0003d0 7f f8 3d bb 57 f5 8a 3d 83 87 de 3c 98 c0 aa bd
       -0.0028987227 0.06785076 0.027164226 -0.083375156
0003e0 fe 5e b7 bd 0b 14 11 3d 73 18 6f bd cc 03 0b bd
       -0.08953665 0.035419505 -0.058372926 -0.033939168
0003f0 fa 6e e8 3c c6 27 42 3c ac 4a 8d 3b 38 f1 cf bb
       0.02837323 0.011850303 0.00431188 -0.006345894

encoder_cnn.2.bias f4 [16]
000000 9f b2 fd 37 ef a6 8d 37 77 52 98 37 72 67 dd b7
       3.0243127e-05 1.6886244e-05 1.8158213e-05 -2.6393423e-05
000010 a5 49 9e 37 62 c9 ab b6 71 45 91 b7 ee 04 28 b8
       1.8869361e-05 -5.119641e-06 -1.7317683e-05 -4.0058912e-05
000020 ef c2 41 b8 eb 4c 99 b8 cf ad 8a b8 06 0f 20 37
       -4.6196332e-05 -7.3099356e-05 -6.612727e-05 9.540241e-06
000030 7a 79 89 b6 70 66 14 37 b8 4a 9e b7 b3 66 f7 b7
       -4.09706e-06 8.845338e-06 -1.8869861e-05 -2.9492518e-05

encoder_cnn.3.weight f4 [16]
000000 eb 3c 6a 3f 9e 99 6d 3f f7 cb 51 3f 58 be 66 3f
       0.91499203 0.92812526 0.8195185 0.9013419
000010 5e 7f 61 3f 5a da 23 3f e3 64 3b 3f ed c1 53 3f
       0.8808497 0.64005053 0.73200816 0.8271778
000020 63 8c 45 3f 3e 13 4d 3f 87 cb 48 3f 88 11 62 3f
       0.7716734 0.80107486 0.7843556 0.88308
000030 8f 66 46 3f 39 22 48 3f e4 bf 41 3f 08 f4 6c 3f
       0.7750024 0.7817722 0.75683427 0.9255986

encoder_cnn.3.bias f4 [16]
000000 bd 6d b9 bb 3f 57 26 3d 19 62 c1 3d 6c a0 c4 3d
       -0.005658834 0.040610548 0.09442539 0.096009105
000010 53 e3 b9 3c eb 06 95 3c d0 48 9a 3d d8 fb 8b bc
       0.022691404 0.018191775 0.07533419 -0.017087862
000020 42 ed e1 3d 3a 49 c5 3d c4 24 c9 3c 07 7c 30 3d
       0.110315815 0.096331075 0.024553664 0.04308703
000030 7a 24 05 3e 49 8a 64 3d e3 ac 90 bd 40 59 8c 3d
       0.13002196 0.05579594 -0.070642255 0.068529606

encoder_cnn.3.running_mean f4 [16]
000000 10 fa 82 bc b8 96 1f 3e 85 6d 7b bd 03 1c 1f 3e
       -0.01598838 0.15584838 -0.061383743 0.1553803
000010 36 14 a5 3d 8d 21 34 3d de 09 12 be aa fb 57 bd
       0.080604956 0.04397731 -0.14261577 -0.05273024
000020 5c 42 d5 3d ce e8 3f 3d d8 5b 5f be 8b 02 86 3c
       0.10413048 0.04685288 -0.2181238 0.016358634
000030 c1 02 12 bd 74 60 87 bc 4a a5 17 bd 1d a5 c4 3b
       -0.035647158 -0.016525485 -0.037022866 0.0060011283

encoder_cnn.3.running_var f4 [16]
000000 06 70 ca 3b 8f 42 ea 3b 51 7e c2 3b 01 e0 65 3c
       0.006177905 0.0071490477 0.0059354682 0.0140304575
000010 65 8f e0 3b 7c 08 72 3b 6a 12 73 3b d2 e1 f5 3b
       0.0068530315 0.0036931327 0.0037089833 0.0075037265
000020 b9 77 83 3b 0c 56 8d 3b 37 7b 2b 3b 50 9c 0e 3c
       0.004012075 0.004313236 0.002616597 0.00870426
000030 92 f2 d9 3b 27 20 e2 3b 89 36 a8 3b ef df 12 3c
       0.006651231 0.0069008055 0.005133454 0.008964523

encoder_cnn.5.weight f4 [32, 16, 3, 3]
000000 23 bb b3 3d b4 ad 61 3d 31 92 43 3d b1 29 1b bc
       0.08775928 0.055097297 0.04774684 -0.009470389
000010 c0 e9 68 be f7 52 6c bc 11 26 98 3d f7 d0 bc bd
       -0.22745419 -0.014424077 0.074291356 -0.092195444
000020 e0 b8 a8 bd ab ad 65 3d 6b c2 e4 3c 7c e2 25 3d
       -0.08238387 0.056073826 0.027924737 0.040499195
000030 e5 82 30 be f3 81 33 be 38 11 84 bb ee cd 4a bc
       -0.17237432 -0.1753004 -0.004030373 -0.012378199
000040 a9 d0 54 3d 07 93 ca bd 2e d5 8e 3d a0 9e 5d 3d
       0.051956806 -0.098913245 0.069742545 0.054106355
000050 d2 21 06 3d 6e 61 87 3d 71 d3 10 3d fb b1 00 3d
       0.032747097 0.0661038 0.035357896 0.031419735
000060 66 b5 c6 3c 73 c1 28 3d 7a 9b 86 bd fb 2e 54 3c
       0.02425642 0.041200113 -0.065726236 0.012950654
000070 a4 9b 08 bc 45 e6 01 3d ee 01 0a 3d c5 da 09 3d
       -0.008337889 0.031713743 0.033693247 0.0336559
000080 6b 0f ea bd 64 04 05 be 37 24 cc bd 96 1e 80 bc
       -0.11428722 -0.12989956 -0.09967845 -0.015639585
000090 bb 20 44 bd 55 c4 86 3d 3f 52 cf 3c 81 9e 22 3d
       -0.047882777 0.06580416 0.025307773 0.039701942
0000a0 f9 aa af bc 4c b3 5b 3d 57 b3 9e 3b 0f 1b e4 3c
       -0.02144383 0.053637788 0.0048431563 0.027844934
0000b0 c8 47 77 bc 6d 8d 82 bc d8 7b 05 bd e4 51 9b bb
       -0.015092798 -0.015936578 -0.03258881 -0.0047399867
0000c0 51 e1 ba bd 2a 4d 72 bd 45 8b b8 bb 22 64 a0 bd
       -0.09125007 -0.05915562 -0.0056318366 -0.07831599
0000d0 03 7c 7f 3d 9a 2c 39 3c 43 14 ae 3b 9e 6f 8c 3d
       0.062374126 0.011302138 0.005312474 0.06857227
0000e0 61 c5 12 3c dc 94 97 3d fa 4f 04 be e5 ad 41 ba
       0.008958192 0.074014395 -0.12921134 -0.0007388278
0000f0 41 b0 8e bc 98 7d 56 bd 7c 17 97 3d fa 58 b8 bc
       -0.017418029 -0.05236587 0.07377526 -0.022503365
000100 9c cf f9 3c 91 87 0d bc d5 c9 64 3d 5a 58 de 3c
       0.030494504 -0.008638279 0.055856545 0.027141739
000110 dd fd ba bd d6 b0 a1 bc c5 a2 bd 3c 01 3f 3d bc
       -0.09130452 -0.019737642 0.023148904 -0.011550666
000120 f0 a9 d2 3c 3c 4e e6 3c c4 e0 5c bb c2 e8 c3 3c
       0.025715798 0.028113477 -0.0033703307 0.023914699
000130 de 67 2f bb 71 24 98 3d 9d ce f7 3d 89 ee 19 bc
       -0.002676479 0.07428826 0.12099955 -0.00939525
000140 f4 00 57 3c 6e 86 72 3d 69 28 29 3d 4e 89 41 3d
       0.013122786 0.059210233 0.041298304 0.047250085
000150 af 45 8f bc 41 74 89 be 0e 9e 66 bd b8 d8 c6 3c
       -0.017489282 -0.26846507 -0.056303076 0.024273261
000160 f7 a2 c7 bd b8 77 12 bd 1e 88 67 3d 1a da f2 3c
       -0.0974788 -0.035758704 0.056526296 0.029645015
000170 61 ca 8a 3b f9 b5 b9 3d eb a6 37 3d a9 6a f6 3a
       0.004235551 0.09067912 0.04483692 0.0018800098
000180 33 47 14 3c 9d 1b 68 bd 42 d6 61 3c 06 65 34 bc
       0.009050178 -0.05666696 0.013783993 -0.011010414
000190 0a e0 40 3d de 89 00 3c da cd b1 bc ab 17 ec bc
       0.04708866 0.00784537 -0.021704603 -0.02881988
0001a0 d0 ae 18 3d 0b 84 6c 3d 0d bc 77 bd 37 79 0c be
       0.03727609 0.057743113 -0.060482074 -0.13718115
0001b0 60 2e d6 ba 7c 3e 71 bd 01 ed f6 bc 13 40 0a bb
       -0.0016340725 -0.05889748 -0.03014231 -0.002109532
0001c0 d5 4a a0 ba 95 2f 03 3d e8 da 7b 3d 2b 87 cd bb
       -0.0012229333 0.0320278 0.061488062 -0.006272217
0001d0 69 f5 01 3c 0b af a8 3d 89 f3 46 3c a5 c0 00 3d
       0.0079320455 0.08236512 0.012143024 0.03143372
0001e0 2e bc 75 bd 87 5a 06 be e8 d8 d9 bd 95 42 be 3a
       -0.059993915 -0.13120471 -0.10637075 0.0014515693
0001f0 d1 60 67 3d 32 ac 08 be f0 66 89 3d 52 16 89 3c
       0.056488816 -0.13346937 0.06709087 0.016734276
000200 3b 4b 37 3c a9 a0 ee 3b f3 2c b6 bd 87 31 80 3d
       0.01118737 0.007282336 -0.08895292 0.062594466
000210 05 81 1e 3d 73 b6 a2 bc 37 1f a0 3d 66 5c 61 3d
       0.03869726 -0.01986239 0.07818454 0.05501976
000220 19 8d b3 3d 6e 48 c2 3d e5 83 c3 3c 93 7c 2d be
       0.087671466 0.09486471 0.023866603 -0.16942053
000230 e4 bc 93 3d df 81 04 3e 29 22 c2 3c cb 41 05 be
       0.072137624 0.12940167 0.02369793 -0.1301338
000240 61 6c 8d 3d 9b c8 ae bd 39 13 6b bd 85 cd 22 bd
       0.06905437 -0.08534356 -0.05739138 -0.03974678
000250 26 54 ab 3d 19 fc b1 3d 31 62 4a bd 3a f6 a6 bd
       0.083656594 0.08690662 -0.04941005 -0.08152433
000260 90 90 2f bd c5 48 10 bb 31 a2 c6 bd dd 75 88 bd
       -0.042862475 -0.002201603 -0.09698904 -0.06663106
000270 3e fd a7 3c dd f6 fc 3b be dd 01 3e 65 e7 72 bd
       0.020506497 0.007719858 0.12682244 -0.059302706
000280 a1 fb 00 bd 85 03 84 bd c2 95 ee 3c af 1c 06 3e
       -0.031489972 -0.06445984 0.029124144 0.1309688
000290 b8 2e 72 3d 3d 90 c2 3c 4c dd 9b bd 3d 0d 3d 3c
       0.059126586 0.023750419 -0.076105684 0.011538801
0002a0 24 37 90 3c 46 e5 0c 3b 5f 47 a5 3d 0e 51 18 bd
       0.017604418 0.0021498962 0.080702536 -0.037186675
0002b0 46 76 15 3d ec 89 02 3d 3b 78 eb 3c 81 2d 47 bd
       0.036489747 0.031869814 0.028743854 -0.04862738
0002c0 b1 3a 4e bd fd e7 34 3b 36 a5 cd 3b f5 c6 d8 bc
       -0.05034894 0.0027604096 0.006275798 -0.026462058
0002d0 41 a8 a3 3d 25 29 c9 bd a2 19 c5 bd 9a 9f cc bb
       0.07991076 -0.09822301 -0.0962403 -0.006244612
0002e0 48 71 46 3d fc a8 2b 3c 0b e3 5a 3b 8f e9 37 bd
       0.048447877 0.010477301 0.0033399488 -0.044900473
0002f0 f4 9e c2 bc a8 2f 9c bd 2a e1 3f bd 94 1d 9e bc
       -0.023757435 -0.07626277 -0.046845593 -0.019301213
000300 c9 8f 0a bd 9e fb c8 3c 97 8c da bd 5a 76 08 bd
       -0.03382853 0.024534043 -0.10671347 -0.033315994
000310 11 c7 07 bd ad de b0 bc 60 10 2f 3d 31 56 94 bb
       -0.03314883 -0.021590555 0.042740226 -0.0045268764
000320 4a 4b 1e 3d e2 fc a2 3c 6f 98 18 3d 80 06 e5 bc
       0.03864602 0.019895975 0.037254747 -0.027957201
000330 1f 01 00 bc 39 d2 d3 bc 60 60 06 3d 34 84 21 3b
       -0.007812767 -0.025857078 0.032806754 0.002464545
000340 42 13 37 bd 7f 2b 83 bc 46 3f 3b 3b a4 b8 6a 3d
       -0.0446961 -0.016011951 0.002857165 0.057304993
000350 29 4d 62 3c b7 ff c5 3c da 64 a7 ba 20 ba 6b bd
       0.013812342 0.024169786 -0.0012771145 -0.05755055
000360 68 69 21 3d 94 21 85 3b 2f dd 2e 3d 13 f9 97 3b
       0.039407164 0.0040628407 0.042691406 0.0046378463
000370 ca 12 d1 bb 5b 43 a4 3b c1 a4 40 bc 93 d2 f1 3d
       -0.0063804137 0.005012912 -0.01175803 0.11807742
000380 8c 5e 08 3d 84 80 a7 3c d2 1c 05 bd 11 49 65 3c
       0.033293292 0.020447023 -0.03249819 0.013994471
000390 d5 35 57 3c 92 3b d0 3d 00 9c 03 3e 35 fb 68 bd
       0.013135393 0.10167612 0.12852478 -0.056880195
0003a0 4c 0f 4c bd 57 1a 90 3c fd fd bb bc 9a 03 45 bd
       -0.049819276 0.017590685 -0.02294826 -0.048099138
0003b0 1a ce ca 3d 0a 33 da 3c f9 93 c8 3d 2b 7c dc bd
       0.09902592 0.026635665 0.097938485 -0.10765871
0003c0 ef d2 eb 3c 9a ab 8a 39 c9 72 5d 3d 74 6d 31 3d
       0.028787104 0.00026449264 0.054064546 0.043317273
0003d0 6b 2b 6f 3c 23 a6 3f bd 24 2d b1 3c fe 92 7a bb
       0.014597754 -0.0467893 0.02162797 -0.0038234587
0003e0 76 34 05 bc ec cd ca 3c d2 5d d2 3d 2a 1f 93 bc
       -0.008130183 0.024756394 0.10271801 -0.017959196
0003f0 98 be 64 3d d8 d2 2b 3d a5 f2 31 3d a3 0d 17 3c
       0.055845827 0.041949123 0.043444294 0.00921956

encoder_cnn.5.bias f4 [32]
000000 de e2 d2 3d 0f 52 8d 3c 50 38 84 3d 61 0c b7 3d
       0.10297178 0.017251043 0.06456053 0.08937908
000010 30 72 ed 3c 2b b3 8b 3d 30 77 bf 3b 42 43 e8 3d
       0.028985113 0.06821283 0.0058430657 0.113409534
000020 de a8 a4 3d 46 80 b3 3d 3d 5f 26 bb f4 60 51 3c
       0.08040021 0.087647006 -0.0025386356 0.012779463
000030 23 28 39 bd 6a 03 75 3d 8e e1 e5 3d 4f d8 52 3d
       -0.045204293 0.05981771 0.11224662 0.05147582
000040 59 70 82 3d 3e 84 60 3d 0c d6 4d bd 03 6d de 3d
       0.06369085 0.054813616 -0.05025296 0.10860636
000050 ca 8b b2 3d f4 a5 d4 3c 9f 3b 87 bd fd 09 a1 3d
       0.08718069 0.025958039 -0.06603169 0.07863233
000060 ed 3d 95 3d 93 3b f6 3d 76 02 fa bc d8 dc eb bc
       0.07287202 0.12023082 -0.030518752 -0.02879183
000070 7f d9 d7 bc bb 95 94 3d 48 ce 42 3d b1 ae 0e 3c
       -0.026348827 0.07255121 0.047560006 0.008708642

encoder_lin.0.weight f4 [128, 288]
000000 02 22 c0 3a ab 49 3e bc 0f 35 2c 3d b5 6b 89 bc
       0.0014658573 -0.0116142435 0.042042788 -0.016774992
000010 04 70 1f bd ce 15 08 3d db c8 60 bc b0 64 b2 3b
       -0.038925186 0.03322392 -0.013719763 0.005444132
000020 1e 90 4d 3d 5e 88 79 39 9b 04 17 3c dd e2 4d bc
       0.05018627 0.00023797291 0.009217407 -0.012566295
000030 53 67 8f bc 5e 86 38 3d ad d9 b7 3b 1c f5 dd 3c
       -0.017505324 0.045050018 0.005610666 0.027094416
000040 36 aa 44 3d a1 eb 15 3d ef b8 8a bc 6c dd f1 bc
       0.04801389 0.036601666 -0.016933886 -0.029524527
000050 ec 03 02 3d ca 41 f8 3c e6 a8 fb 3c e8 bc 66 bd
       0.03174202 0.030304808 0.030720185 -0.0563325
000060 5a de 1d bc c4 cb 49 3d 80 12 dd 39 e3 29 57 bb
       -0.009635532 0.04926659 0.00042166188 -0.0032831363
000070 65 bc 77 bc 4f 07 c6 3c 06 fb 62 3c a2 c4 f0 bc
       -0.0151206 0.024173407 0.013853794 -0.029390637
000080 90 e2 de 3b 13 ed b9 bc 30 0f f0 3b 66 4f 63 3d
       0.0068019107 -0.022696054 0.0073260292 0.055495642
000090 86 9c 83 bd 98 32 cd 3b 12 19 a1 bc 46 52 94 3c
       -0.06426339 0.0062621348 -0.019665275 0.018105637
0000a0 16 b7 4f 3d bc 6a 11 3c cd de 4c bc 97 e2 7a 3c
       0.050711714 0.008875545 -0.012504292 0.015312812
0000b0 43 94 25 bd eb 56 d9 bc 4b 7b 52 bc 92 f9 53 bd
       -0.040424597 -0.026530704 -0.012846778 -0.05175168
0000c0 8c 70 cd bc cf 8f 23 bd 7a 1c 61 bd 90 8f 18 bd
       -0.02507808 -0.03993207 -0.054958798 -0.037246287
0000d0 6a fb c5 3c 07 9f 2f bd 84 2b 08 3d 2d bb 08 3d
       0.024167735 -0.04287627 0.033244625 0.03338163
0000e0 1c e5 40 bd 51 fc ee b9 23 9b 05 b9 e4 7a 65 bd
       -0.047093496 -0.00045582888 -0.00012741661 -0.0560254
0000f0 64 6f 1b 3d c5 6c eb bb 15 c1 c8 bc 2e 7b 3f bc
       0.037948027 -0.007184597 -0.024506131 -0.011687083
000100 17 71 f7 3c 84 34 1b bd 55 81 aa bc 7f 1c 05 3c
       0.030205293 -0.03789188 -0.020813623 0.00812447
000110 ed d5 6a bc 17 23 21 3d ed f7 06 bd 57 ec 21 bd
       -0.01433323 0.039340105 -0.032951284 -0.039532032
000120 d0 ca a5 3d db 55 52 bb aa 02 0d 3d d7 ea e1 bd
       0.08095324 -0.003209463 0.03442637 -0.1103112
000130 d9 ff 90 bd 6a 48 b5 3b 18 60 dd bc 80 ff 05 3d
       -0.07080049 0.005532314 -0.02702336 0.032714367
000140 e3 61 39 bc 8f 77 1a 3d d8 fa e2 3c 31 64 d4 bc
       -0.011314842 0.037711676 0.027707502 -0.025926681
000150 68 ef ed bc 2b 36 1a bc ba ef f3 bc f4 02 15 3d
       -0.029044822 -0.009412329 -0.029777396 0.03637977
000160 15 8a 0f bd f8 f1 09 bd 31 9f 46 3b 0e b4 07 bd
       -0.035043795 -0.033678025 0.0030307288 -0.033130698
000170 f1 be f0 b8 6f 83 f1 3c b0 4b 78 3d eb 34 07 3d
       -0.000114796574 0.029481618 0.060619056 0.03300945
000180 82 fe 5b 3d b2 58 3b 3d ee bc ab 3b cc 9d 38 3c
       0.053709514 0.045738883 0.005241028 0.01126809
000190 65 22 2a 3d 2f c0 01 bd 49 a1 97 bd d4 cf 08 bd
       0.041536707 -0.03167742 -0.074038096 -0.033401325
0001a0 0d 71 23 3d c9 88 98 3d 43 25 02 bd 1d 81 42 3d
       0.039902736 0.07447965 -0.031773817 0.047486413
0001b0 22 79 46 3b 1a fb 95 3b c3 74 92 bc c5 03 81 bd
       0.0030284603 0.004577053 -0.017877942 -0.06299547
0001c0 a1 ff 27 3d d7 45 a4 3c 5a d7 79 bc 71 07 ad 3c
       0.04101527 0.020052833 -0.015249098 0.021121712
0001d0 30 1c 94 bb 91 56 78 b9 77 2f be 3b cf 8d 0c 3c
       -0.004519962 -0.00023683372 0.005803998 0.008578732
0001e0 c9 1c 3e bd 59 67 67 bd 59 1b cd bb 45 d3 0d bd
       -0.04641417 -0.056495044 -0.0062593636 -0.03462531
0001f0 ca da 3b 3c 1f 41 15 3c 2e 66 2b bc 19 92 29 bd
       0.011465738 0.009109764 -0.010461373 -0.041399095
000200 4e a1 89 3c a3 f9 92 3c c6 c4 2d bd 91 03 46 bc
       0.016800549 0.017941302 -0.042423986 -0.012085811
000210 4f 2e cc bd 1e 43 16 3c 73 bd 61 3d d7 4c 66 3a
       -0.0996977 0.009171275 0.055112313 0.0008785254
000220 96 ed b7 bc 3f 9b 8f 3c 41 91 15 3d e1 57 2b bd
       -0.022452157 0.017530082 0.036515478 -0.041831855
000230 9e ab 8f 3c a7 13 bc bd d0 15 7f 3d 63 d9 97 bc
       0.017537888 -0.09183436 0.06227666 -0.018536275
000240 72 fb 5c 3d c6 85 60 bb 15 58 c8 3c dc ea cf bc
       0.053950734 -0.0034259423 0.024456063 -0.025380544
000250 3e 89 c4 bc b7 7a 88 3d 05 98 f2 3c 46 c8 ea bc
       -0.023991223 0.06664031 0.029613504 -0.028659951
000260 f2 03 c7 3c ad b4 99 3b 32 27 5a bd 85 5e 43 3d
       0.024293873 0.0046907277 -0.053260036 0.047697563
000270 b5 3a b8 3c 9a 2b d3 bc 52 cd d7 bc a8 bd 51 bd
       0.022488931 -0.025777627 -0.026343022 -0.05120626
000280 e5 96 ac 3d 83 98 ff 3c 6f 3f 8d bb c8 14 36 bd
       0.08427218 0.031200653 -0.0043105404 -0.044453412
000290 bc 11 ac bc fd cd 62 3c 01 0a a1 3c db 50 06 3d
       -0.02100455 0.013843057 0.01965809 0.032791954
0002a0 6b a1 85 bd 94 22 40 3d 44 9a a6 3b 48 2e a9 3c
       -0.06524929 0.046907976 0.005084308 0.020651951
0002b0 a6 db e6 bc b1 5e e8 bc 89 23 c1 bc 44 17 29 3d
       -0.028180908 -0.028365465 -0.023576515 0.041281953
0002c0 ad d9 ac 3d 55 c2 de bd 08 94 51 3b 7a c8 f2 3c
       0.08439956 -0.1087691 0.0031979103 0.02963661
0002d0 07 b7 54 3d d5 b3 66 3b 30 04 51 bd a0 e5 96 bd
       0.05193236 0.0035202403 -0.051029384 -0.07368016
0002e0 1f 09 d6 bd b0 8c ad bb 64 63 43 3d 52 93 fc 3a
       -0.104509585 -0.0052963123 0.04770221 0.0019269979
0002f0 d2 64 97 3b 15 2a 7d 3b 91 48 45 3c 6f 42 31 bd
       0.004620173 0.003862982 0.012041227 -0.043276247
000300 78 21 52 3d 9f 27 8c 3b f2 f1 f5 3c f9 0e a3 bd
       0.05130145 0.004277184 0.030022595 -0.0796184
000310 2e 9b 1b 3d ce 82 53 3d 14 18 35 bb b5 d2 6f 3d
       0.037989788 0.051638417 -0.002763276 0.058550555
000320 f5 0b 27 bd 7a 4e 62 bc 43 4d e5 3d 0e 0f a7 bc
       -0.040782887 -0.013812656 0.11196377 -0.02039292
000330 2e 1b 1b bd f7 48 5c 3d 64 d7 86 bc 3b 5b 95 3c
       -0.037867717 0.053780522 -0.016460128 0.018231979
000340 fa 7a 06 3d f5 0c 75 3b 95 d5 11 bd c7 70 e8 bb
       0.032832123 0.0037391756 -0.03560408 -0.007093522
000350 19 87 09 bd bd 69 1c 3b a9 12 00 3c f1 04 0f bd
       -0.033576105 0.0023866736 0.007816949 -0.034916822
000360 bc 12 49 bd e0 34 c5 3c b1 ab 66 bc d3 fb 50 bd
       -0.049090132 0.024073064 -0.01407902 -0.05102141
000370 38 82 4a bd 12 a4 b2 3c 37 f4 4e 3d a6 7c 43 bd
       -0.049440593 0.02180675 0.05052587 -0.047726296
000380 e2 00 85 3d fc b3 05 bd de 95 de 3b db 85 95 3b
       0.06494309 -0.03264235 0.006792768 0.004563076
000390 c9 a5 1f bc 87 49 84 3c c9 47 b1 3c 65 15 4e bc
       -0.009744116 0.016148342 0.021640675 -0.012578343
0003a0 11 de de 3c e0 fa b2 3d 36 d1 c3 3c 03 13 5e 3b
       0.027205499 0.08739257 0.02390347 0.0033885844
0003b0 7c ad 69 bd 8f 3a 63 3c 6d e8 89 3d 4b 27 89 bd
       -0.057050213 0.013868942 0.06733785 -0.06696948
0003c0 87 26 8d ba e3 d4 ec 3c 66 a4 f5 bb 7d c5 55 39
       -0.0010768928 0.028910106 -0.0074964045 0.00020386833
0003d0 1a fc 49 3d 91 85 f2 bc a6 63 8b 3d 90 3d 75 bc
       0.04931269 -0.029604705 0.06806116 -0.014968291
0003e0 d8 78 47 bc 00 1a f9 38 ca b3 a2 3c 35 14 66 bd
       -0.0121748075 0.00011878088 0.01986112 -0.056171615
0003f0 3e 98 41 3c 1a 70 61 bc e7 99 25 bc 9f b6 66 3d
       0.0118160825 -0.013759637 -0.010107494 0.056326505

encoder_lin.0.bias f4 [128]
000000 6a 19 4e 3d 2a 3e 02 3d ba 81 ce 3c e4 d8 03 bd
       0.050317205 0.031797566 0.025208343 -0.032189265
000010 57 d0 7c a1 47 4e db 3b 47 98 21 bc e4 c6 c1 ac
       -8.5656657e-19 0.006692681 -0.009862966 -5.507471e-12
000020 e3 7b b8 3d b5 d5 34 3c ff 5c dd bc e5 c5 6e 3c
       0.090080045 0.01103728 -0.027021883 0.014573549
000030 06 9f d0 b4 37 1b 8c 3c 96 89 55 3d 17 e5 15 98
       -3.8858724e-07 0.01710282 0.052133165 -1.937346e-24
000040 f4 a6 d5 ab 0b 0f b2 bb a2 99 84 bc 5b 94 99 3c
       -1.5180899e-12 -0.005433922 -0.01618654 0.0187475
000050 b9 4f d8 bb aa e3 72 3d cd 9c 71 3d c1 21 a4 bc
       -0.0066013006 0.05929915 0.058987428 -0.020035626
000060 74 4f 92 bc 94 f5 86 3d 0d 28 5f 3d 08 ea 18 3d
       -0.017860152 0.06589809 0.054481555 0.037332565
000070 bc e1 80 3d 0c 5f 79 3c 6b 03 9a a4 17 18 f1 3c
       0.062930554 0.015220415 -6.6792644e-17 0.029430432
000080 f4 66 5c 3d e0 df 48 bc 6c 38 14 3d 33 28 a5 88
       0.05380912 -0.012260407 0.03618662 -9.940027e-34
000090 d1 ed e1 b4 d8 c3 aa 3c eb 42 97 3d d3 6d ac 3b
       -4.208255e-07 0.020845339 0.073858105 0.0052621155
0000a0 d9 0d 12 3d 07 bf cb bb ca b1 32 3d 7c c7 6d 3c
       0.035657737 -0.0062178406 0.043626584 0.014512893
0000b0 0b d1 a3 3c 3a b8 4f 9a af 58 6f 3c 38 9c 5b 3c
       0.01999714 -4.2955414e-23 0.014608546 0.013403945
0000c0 7e 0f 9a 3c 69 b4 6f bb 23 19 8d 3c 45 bc 37 ab
       0.018806215 -0.0036576039 0.0172239 -6.5275937e-13
0000d0 e6 7d d2 9e 75 44 10 3d 2e cb f7 bc 75 d1 fe bc
       -2.2286685e-20 0.035221536 -0.03024825 -0.031105736
0000e0 9e 05 9f 3c 9a 6e 15 bd 86 df 49 bb 89 75 0c b1
       0.019411858 -0.03648243 -0.0030803396 -2.0439492e-09
0000f0 86 c1 87 99 33 16 b6 3c 5f d8 27 bd f1 21 60 3c
       -1.4036836e-23 0.022227382 -0.040977832 0.013679967
000100 b0 db 28 bd df 61 a1 b5 f6 f3 9b 3d e1 82 04 3d
       -0.041225135 -1.2023919e-06 0.07614891 0.03235138
000110 cb 7b 75 3c 1c 8e e1 bb 9e 33 47 3d 27 bd 5d 3d
       0.014983128 -0.006883396 0.04863321 0.054135468
000120 95 2e ac 3d 32 63 9c b4 8c 39 96 ba d7 49 69 3c
       0.08407322 -2.9129438e-07 -0.0011461242 0.014238796
000130 be 04 94 3d 63 d4 55 b8 51 7c 15 a2 22 a2 0e bd
       0.07227467 -5.0980958e-05 -2.0259078e-18 -0.03482259
000140 d1 ac ab 3b ff 27 b9 b9 92 3f bb 97 40 cf be 3d
       0.005239107 -0.0003531575 -1.2100639e-24 0.093168736
000150 a0 64 8a 3d f2 9c ce a6 5a b4 d8 3c 38 23 e0 3c
       0.06757474 -1.4336662e-15 0.026453186 0.027360544
000160 7f 14 12 ae fd 8d 59 a3 3d 20 71 3b 3d 01 1a 3d
       -3.321476e-11 -1.1793661e-17 0.0036792897 0.037598837
000170 11 81 1f 3d 05 8e a1 bc 9b 21 83 bc 57 1d 40 3d
       0.038941447 -0.01972104 -0.016007235 0.04690298
000180 d1 12 bf 3c a4 3d 3d 3c 29 56 83 3d 5c be 35 b4
       0.023324402 0.011550341 0.06412918 -1.6926191e-07
000190 61 80 01 3b da 24 66 ab 2c 93 bc 3b 32 25 bf b8
       0.0019760358 -8.1763556e-13 0.005754849 -9.114518e-05
0001a0 fd 7b 5e bd 5c 24 fc 3c ab 5a 86 b8 b7 af de 8f
       -0.054317463 0.030779056 -6.406506e-05 -2.1958573e-29
0001b0 10 db b6 3c 69 48 a3 3d 11 9f ec af 24 72 58 ae
       0.022321254 0.079727955 -4.3041173e-10 -4.921409e-11
0001c0 86 52 20 3d 2b 10 59 3d 37 68 1c 3d af 5d ed 8b
       0.0391412 0.052993935 0.038185325 -9.143004e-32
0001d0 b8 de 59 bb 17 41 12 3c d4 c5 cd 9f 9d 6c 9c bc
       -0.0033244323 0.008926651 -8.7148156e-20 -0.01909476
0001e0 0b 4f 63 bd 46 ff 80 3c 8d 70 b6 af 9d 90 b4 3c
       -0.055495303 0.015746724 -3.318558e-10 0.022041613
0001f0 7e 59 1c 3d e6 98 c0 bb 8a a7 14 bd 1e 8c 54 a8
       0.038171284 -0.005877602 -0.03629259 -1.1798747e-14

encoder_lin.2.weight f4 [12, 128]
000000 8f 6c ba 3d 8a f4 02 be 12 a7 80 bc e5 35 c2 3c
       0.09102737 -0.12788597 -0.015704665 0.02370734
000010 6e 34 07 00 de 22 5d bd 79 fe cb bc 12 c0 03 b5
       6.61657e-40 -0.05398833 -0.024901615 -4.90808e-07
000020 2c 99 ce 3d f0 24 3a 3b 27 77 dc ba b3 bf a3 3d
       0.10087809 0.0028403364 -0.0016820178 0.07995548
000030 52 cf 79 36 a6 61 9a bd 30 6a b6 bd 77 ae 02 80
       3.7224568e-06 -0.07538156 -0.089069724 -2.46257e-40
000040 0a 0b eb 2b 18 3b 16 be 91 93 81 3d ff 6b ad bc
       1.6700818e-12 -0.1467098 0.06326974 -0.02116966
000050 22 5e 88 bd 99 9a bc 3b 5b 9f 65 3c ee a0 89 3d
       -0.066585794 0.005755734 0.014015044 0.06720148
000060 13 5a 8f 3d b4 7b 79 bd d6 bf 82 bb 95 a9 f3 3d
       0.06999602 -0.060908988 -0.003990154 0.118975796
000070 90 b3 80 3c d6 35 f9 3d 22 ad 7c 08 12 05 5b bd
       0.015710622 0.121684715 7.603701e-34 -0.053471632
000080 32 62 ad bd 1e f0 10 3c c3 72 7a bd e3 9d 15 0a
       -0.08465995 0.008846311 -0.0611446 7.203784e-33
000090 6b 6e a5 30 6d 77 93 3d 41 82 a3 bd 25 08 f8 bd
       1.2036713e-09 0.07200513 -0.07983828 -0.121109284
0000a0 23 25 08 3e 44 e5 80 3d dc 6f de 3d d6 db 4a bd
       0.13295417 0.06293729 0.10861179 -0.04952606
0000b0 4e ac 97 bd 97 b6 1e 30 7a 4a 69 bd 35 5f 62 3d
       -0.074059114 5.773954e-10 -0.056955792 0.055266578
0000c0 01 8e 21 bd 1c 4a fc bb 71 25 0a bc 59 24 d7 b9
       -0.039442066 -0.007699264 -0.008431778 -0.00041035077
0000d0 3f df 03 00 37 11 61 bd dc 3d 18 3d 00 60 96 3c
       3.55592e-40 -0.054948058 0.03716837 0.018356323
0000e0 e5 2a d5 3d 79 e0 db bc 15 22 81 bc e2 fc ba 38
       0.10408572 -0.026840435 -0.015763322 8.916274e-05
0000f0 d2 31 01 00 da 5f ef bc 70 06 0f bd bc 5f 84 bd
       1.09708e-40 -0.02922051 -0.03491825 -0.064635724
000100 0b e3 0b bd 9c 2c 83 32 e1 ed 88 bd aa 7d b1 3d
       -0.034152072 1.5270693e-08 -0.06685997 0.08666547
000110 a2 a6 6b 3d 9c a0 96 3c 64 26 d6 bd 6c 6d 46 bd
       0.05753196 0.018387131 -0.10456541 -0.048444197
000120 26 51 1b 3d 31 a3 00 3c d2 ec 01 3d dc 34 4d bd
       0.037919186 0.007851408 0.03171999 -0.05009924
000130 47 53 90 3d a1 80 42 3a 58 50 0b ac 50 9f 95 bd
       0.07047134 0.000741968 -1.9797688e-12 -0.07305777
000140 88 85 a4 bc 05 16 0d ba 91 58 07 80 1d 5f 8f bd
       -0.020083204 -0.00053820043 -6.7462e-40 -0.07000563
000150 a5 10 d3 3d 01 e3 00 80 da b7 23 3e d2 ed 80 bb
       0.10305909 -8.1434e-41 0.15988103 -0.0039346004
000160 a3 04 ef ac 32 d1 00 80 48 83 83 3d ec 11 e1 3d
       -6.7933033e-12 -7.5045e-41 0.06421524 0.109897465
000170 9a 1f ab bc 93 b7 87 3d 86 8c 6d 3c 8a e0 8b 3d
       -0.020889092 0.06626811 0.014498835 0.06829937
000180 24 6c 73 3d a4 a5 dd bb ac 0b f1 3c f9 bd 36 35
       0.059429303 -0.0067641307 0.02942451 6.807673e-07
000190 0a 48 b6 bb bb 08 a9 af cb 49 06 3d 23 7f 50 bb
       -0.005562787 -3.0747124e-10 0.03278522 -0.003181406
0001a0 87 46 9c 3d 8c 99 0e 3d 7d 29 d2 30 8f 45 04 00
       0.076306395 0.034814402 1.5291303e-09 3.92295e-40
0001b0 7c 79 d5 3c c9 73 83 3d f6 e4 29 32 b2 7f 0e 37
       0.026058905 0.06418569 9.889154e-09 8.493591e-06
0001c0 cd cb e4 3d e1 80 9e bd 1f dd 26 bd 8c c5 05 00
       0.111716844 -0.077394255 -0.04073822 5.30044e-40
0001d0 64 c4 da bc fb 86 a3 bd 63 46 92 83 f7 7d 64 be
       -0.026704974 -0.0798473 -8.597269e-37 -0.22313677
0001e0 5e 6c b9 bd 61 75 42 3c 07 ce 97 39 0a 0c 79 bd
       -0.090538725 0.011868806 0.00028954467 -0.060802497
0001f0 ac 22 70 3d 2c 1f fb bc c5 c6 0d 3c 54 ea 03 80
       0.058626816 -0.030654512 0.008653347 -3.59568e-40
000200 2d ea 21 bd 81 9b 5a bd f2 6b d1 bb 25 5a 2c be
       -0.039529968 -0.053370956 -0.006391042 -0.16831262
000210 3a 69 03 80 39 96 17 bd 15 7c 5a bd 76 4c e5 29
       -3.13255e-40 -0.037008498 -0.05334099 1.0182907e-13
000220 a1 5f b6 bc f8 e2 e8 bd 56 bb 25 3d f5 e8 50 bd
       -0.022262396 -0.11371416 0.04046186 -0.051003415
000230 f7 34 0a 3a 77 35 ba 3d f3 90 24 3e 1f 8a 07 80
       0.00052721746 0.09092229 0.16070919 -6.92397e-40
000240 37 37 9d 35 72 fc 2d bd 3e dc b7 3d 5e 7a 72 3d
       1.1713481e-06 -0.04247708 0.08977555 0.05919873
000250 19 ac b5 3d 82 ba 20 be 9f b4 bd 3a 7c ce 0c 3d
       0.08870716 -0.15696147 0.0014473385 0.034376606
000260 89 32 49 bd 3e bd 11 bd f6 7a d9 3d 94 c8 01 be
       -0.04912046 -0.035580866 0.10619156 -0.1267417
000270 39 09 0a 3e f3 8d 4a 3c 2e 7a 8a 82 e6 9a 5f bd
       0.1348008 0.012362945 -2.0347405e-37 -0.054591082
000280 8d 73 c1 bd 79 15 77 3d a8 2a 12 3d f9 dd c2 09
       -0.09445868 0.060323212 0.03568521 4.6912543e-33
000290 5e b8 00 b6 ad 46 83 3d 4e 54 c7 bd 4e 7c 6c 3d
       -1.9180802e-06 0.06409965 -0.09732877 0.057735734
0002a0 34 5b 25 3d 69 0c ef bd fd fc 68 3b 4f 0e 76 3d
       0.04037018 -0.11672289 0.0035551183 0.06007224
0002b0 61 38 2a 3d a3 8d 76 36 69 56 dc 3c 83 a2 22 3e
       0.041557673 3.67393e-06 0.026896672 0.15882306
0002c0 6c d6 2e be 6e 30 fc 3c f0 1c 7e bd 68 55 1c a2
       -0.17073983 0.030784812 -0.062039316 -2.1187156e-18
0002d0 f3 db 06 80 b7 ae f1 bd 09 37 12 be dd 12 90 bc
       -6.29916e-40 -0.11800902 -0.14278807 -0.01758712
0002e0 27 49 72 3e 6b 15 41 bc 5d 88 b2 3c 17 8d b2 3a
       0.23660718 -0.011784892 0.021793539 0.001362237
0002f0 48 55 02 00 cc 37 f7 3d 61 5f cf 3b 96 da 94 3d
       2.14264e-40 0.12071189 0.0063285087 0.072682545
000300 2f a8 5f 3d 82 37 ca 3a 42 1f 80 3c a2 30 52 bd
       0.05460375 0.001542792 0.015639905 -0.05131591
000310 51 c6 2e 3d 52 05 9c bb 1c 46 28 3d a1 7f 60 bd
       0.042669598 -0.0047613764 0.041082487 -0.054809216
000320 d7 02 bb 3d 7f 06 9d 3b 15 d4 77 bc 21 cb 95 3c
       0.09131401 0.004792034 -0.015126248 0.018285336
000330 c3 48 2f 3d 10 74 58 3b 22 f9 1d af b8 53 5d bd
       0.042794 0.0033028163 -1.4367577e-10 -0.05403492
000340 1c 14 97 3c d9 53 71 ba 8d 6d 06 80 e8 70 c8 3d
       0.018442206 -0.00092059147 -5.90312e-40 0.0978716
000350 7c 4d 57 bd fc 02 02 00 a6 09 84 bd 8c 56 b4 3c
       -0.05256413 1.84742e-40 -0.06447153 0.022013925
000360 fb ec af ad 2d 4d 06 00 d3 bb 55 3d ef db c9 be
       -2.0000437e-11 5.78698e-40 0.052181076 -0.3942561
000370 22 74 10 3d cb a9 b3 bd 39 da a3 3c 82 1f 05 be
       0.035267003 -0.0877262 0.020001518 -0.130003
000380 5d e1 84 3e 82 e5 23 bd 6c 3b 29 bd 1b e4 85 38
       0.2595319 -0.040013798 -0.041316435 6.384422e-05
000390 1b f7 da bd 77 50 ec 0e d2 4a 06 3d dd 52 20 3c
       -0.10691663 5.8255977e-30 0.032786198 0.009785381
0003a0 e0 ce 57 3c c1 58 17 3e d1 42 6c 3a 13 d9 4f 97
       0.013171881 0.1477995 0.0009012642 -6.7159294e-25
0003b0 fa a6 81 3d ed f7 a3 bc 93 24 df b1 6e 57 a6 b7
       0.063306764 -0.020015681 -6.494312e-09 -1.9829455e-05
0003c0 21 7d f1 3c d9 74 01 3d 02 79 dd bb 30 5c 00 80
       0.029478611 0.031605575 -0.00675881 -3.307e-41
0003d0 d6 ef 69 bc 15 68 e4 3c be 58 f6 21 36 e0 1f 3e
       -0.014278373 0.027881661 1.6693098e-18 0.15612873
0003e0 3b 2c 81 bb 6d 15 34 3c 3f 41 2c 38 fe f9 3d bd
       -0.0039420403 0.010991436 4.106876e-05 -0.04638099
0003f0 37 8b e5 bc d4 c7 dc bb 4d ba b5 3d f7 c0 04 80
       -0.028020484 -0.0067376886 0.08873425 -4.36565e-40

encoder_lin.2.bias f4 [12]
000000 87 2c f5 bb 6b c9 8b 3b 94 ca 86 3d 7d e4 e1 ba
       -0.0074821147 0.0042659543 0.065816075 -0.0017234233
000010 c2 d8 3c 3d 1d 84 b2 ba bf f9 ae bd c6 83 a8 3d
       0.046105154 -0.0013619695 -0.08543729 0.08228259
000020 21 6f 08 be 81 ff b8 3c ee 9c 80 bd 9f ba 78 bd
       -0.13323642 0.022582771 -0.06279932 -0.06072485
