timothe/models/encoder.pth (torch, 182456 bytes, 14 tensors)

encoder_cnn.0.weight f4 [8, 1, 3, 3]
00000000: 7ae0 4f3c 688e be3d cd67 60be 3884 44be
00000010: 1ad9 11be 03ad 133c 1d9b f8bb db0a 2a3e
00000020: c5b3 88bd 8cc6 983d 9787 5dbd 3caf 34bc
00000030: 1cde 36be 09d0 77be 6108 20bd f1a2 203d
00000040: fa4c 893d 84df 093e b8aa a2bd 8ae7 1ebd
00000050: fd7a 0d3e 6c1a 3b3e b3bf 973d 1100 4b3e
00000060: f255 50b8 9daa fd3d 5a22 6f3e ad83 4bbe
00000070: dc2e 25be 931b 74bd cef3 7dbd 02bf c23d
00000080: d667 fcbd 4278 a2bd dc69 22be e5d8 45be
00000090: fb3b 0dbe 77cc 853e fe3e 153e e59d df3d
000000a0: e7ca b33d 173a d1bd c370 713c 7026 52be
000000b0: efa8 56be 843e 4fbd a178 733e 9c5b 5c3e
000000c0: 62e6 1cbc 084e 263e ccc9 6d3e 025a 9b3e
000000d0: 50bb 603e e08a f33d b273 463e f9ac b4bd
000000e0: c63c 523d 124e 20be f82b c9bd 238f 3dbd
000000f0: 50a7 133e 9be6 d43d ad4a f6bd dc8d 263e
00000100: 3736 603e fec7 f73c 6afa b53d 060a 373e
00000110: 0e5f 3a3e 1297 8b3e 365c fcbd ab4f 85bd
0.012687797 0.093045056 -0.21914597 -0.19191062 -0.14242974 0.009013417 -0.0075868503 0.16605704
-0.06674913 0.07459745 -0.054084387 -0.011028107 -0.17858166 -0.24200453 -0.03907049 0.039217893
0.06704135 0.1346417 -0.07942718 -0.03879503 0.13816448 0.18271798 0.074096106 0.19824244
-4.9671107e-05 0.123860575 0.23352948 -0.19874449 -0.16131157 -0.05959661 -0.06200009 0.09509088
-0.12324493 -0.079330936 -0.15860695 -0.1932102 -0.13792412 0.26132557 0.14574811 0.10918788
0.08778935 -0.10216158 0.014736357 -0.20522475 -0.2096288 -0.05059673 0.23776485 0.21519321
-0.009576412 0.16240704 0.2322151 0.30342108 0.21946454 0.11891723 0.19380072 -0.088220544
0.05132749 -0.15654781 -0.098228395 -0.046279084 0.14419293 0.10395547 -0.12025962 0.16265053
0.21895681 0.03024673 0.08885653 0.17874917 0.18200323 0.27263695 -0.12322275 -0.06509336

encoder_cnn.0.bias f4 [8]
00000000: ffa1 d83d 1ee6 b63e 3736 a23e 9d11 c43e
00000010: 1a0f 3d3d a0c2 9abe 56e9 763c 7168 6dbe
0.10577773 0.3572244 0.31681988 0.38294688 0.04615698 -0.30226612 0.01507028 -0.23184372

encoder_cnn.2.weight f4 [16, 8, 3, 3]
00000000: 8b14 8cbd 87ff 383d 25a0 493d c2aa 9abd
00000010: 1530 febb 1ce0 b4bc 86ea bf3b 2360 d7bb
00000020: cf71 1c3c 1eae 96bd 8a27 d33c b09e 873c
00000030: 69a8 ab3d 6fea 04bc 5a4f 01be 1673 49bd
00000040: 9f37 1b3d 9295 4ebd dbe4 8abd 5962 68bd
00000050: bad7 cf3d 15c0 aa3d 811a 1e3b 167a 16bd
00000060: 1922 73bd e1ad 123d 4877 99bd 4604 ccbd
00000070: 5e09 29bd 6dc9 c2bc c1c1 0bbd 2019 8a3c
00000080: 7503 b5bd 014a 963d d937 0f3c e216 9cbd
00000090: 91f5 8e3b 5d04 43bc 14a3 863c 9947 1a3d
000000a0: 57b8 bf3c c544 acbb 953f 29bd 49b7 fc3c
000000b0: d4b7 00bd b469 3bbd cb89 95bd d852 94bd
000000c0: 50ed d3bd f556 edbd 3bc0 d9bd 10cd 11bd
000000d0: dfbf b0bd 34d8 8cbd 8c57 393d 4899 82bc
000000e0: db59 b93c 30b3 d43c 3f5d 9fba 56d1 083d
000000f0: 0db9 663d 8b6c ee3c 0ae0 7e3c 6d12 793b
00000100: d2e1 96bd ca59 53bd 6bdc ba3c aa9f 36bd
00000110: 9e8d aabd 15d1 70bd c268 cebd 4f39 96bd
00000120: ef5b c63c 56dd 8d3d f278 b83d 30c1 cfbc
00000130: a31e 38bb 7a70 09bd 6752 c43b b9c2 abbd
00000140: f5e8 893b f16f a83c 5a5d 45bd d34f 60bd
00000150: 47dc 703d b8fa 8fbb 4318 38bc cff7 a73d
00000160: 31d8 21bd 0051 a8b8 72c6 c73d c5c2 4bbd
00000170: 85d3 c03d 4393 583d 1a66 89bd 4223 4e3d
00000180: aeca 973c 8a64 3dbd 9869 9c3d 9783 4fbd
00000190: 7007 9f3c 79d0 0c3c 43c6 9f3d 7ef7 4a3c
000001a0: 80f5 dd3c 6b4e 2a3d 51df 37bd b2bd 08bd
000001b0: b4bc 6fbd c13e cf3c 138c 223d 9441 e93c
000001c0: 9a44 2bbc 6c51 9cbc f009 58bd 0956 bfbc
000001d0: ca5a 34bc 1fe5 aebc 56c4 04be 4e8a 29bd
000001e0: ba2d 8fbd 57cb 2a3c d708 f2bd 5557 e6bd
000001f0: 2d1d f9bd 8f55 7a3d 0803 a33b b8f6 a93d
00000200: 331c 5b3d e0e7 2e3d 4d0f 02bd 185e 833c
00000210: 7260 0bba 4b83 153b a074 f43a d7fe bdbc
00000220: fa54 1ebe f468 c1bd 57d7 b23c 4502 0abe
00000230: 3eab 36bd 8d63 833d 1a36 c5bc edcb 96bc
00000240: 5e89 a8bd 8388 173d 8223 b9bc 5bce 2fbd
00000250: b881 a5bb c4c4 bebc 1a55 e2bc d6fc 9f3c
00000260: 51ad 06bc f65e b73d acca b83d e8fa 57bd
00000270: a54a ab3c e8e5 67bd b31a d2bd 560f 69bc
00000280: d5cf 9dbc fda4 2bbb e3bd 0abd c787 263c
00000290: a553 5b3d 3205 cfbd 97c3 bd3d b4e4 10bd
000002a0: ae40 943b 1886 d33b e6ae 45bd a329 473c
000002b0: f2de dc3d e94c e2bc 3f2f cfbd 288c 8abd
000002c0: 20c8 0bbe 1e23 23bc f916 b8bd 7e76 bebd
000002d0: 0641 00bd a195 5d3d 5a53 3c3d 1f32 843d
000002e0: 410f c63c a09d bb3a 99a6 cf3c e0a5 343d
000002f0: 5e56 f03d 055c f0bc 14f6 a6bd 60a9 61bd
00000300: c41a cbbd ee57 843c 5e31 03bd 2364 b1bd
00000310: e7c6 bd3d 44e5 8cbd c6c4 94bd 0aa6 133d
00000320: b0ad 77bc f3ff 2fbd 61aa 6fbd 60f4 98bb
00000330: e396 b9bc cafd 5c3c b141 7abd 505e 81bd
00000340: beb0 a6bd e1f5 c5bb 9026 cdbd 8166 ef3c
00000350: ee36 543d 82db 423b cc2b d7bc 5f93 22bd
00000360: 8ae3 993d 6de9 37bd 92ae 2a3c f29e 9dbc
00000370: 072c 8abd c721 89ba 6842 9a3c aa80 9f3c
00000380: 56d2 c0bb 63a5 84bb 13a7 a1ba 167f c2bb
00000390: ed4a 063a dce2 e9bd 63de 26be 06b8 2d3a
000003a0: 175f 4ebd f892 cfbd 6b5f 803c 9cfe c03d
000003b0: b73c 13bd bfda 243c 4f3a 0d3e d0b8 923d
000003c0: cff7 c6bc 997c 0f3c 041c 79bd 064d 5e3c
000003d0: c0f7 2a3b 62a3 2b3d 7a67 573d cf9c c0bd
000003e0: 226b 10bd c6d6 1bbc 7312 abbd d318 debd
000003f0: 036b 8f3d 6170 403d fdd0 093d f715 763d
-0.06839856 0.045165565 0.04922499 -0.07552101 -0.0077571967 -0.02207952 0.005856815 -0.0065727397
0.009548618 -0.07357429 0.02577569 0.01655516 0.08381731 -0.008112534 -0.12627926 -0.04918202
0.03789484 -0.05043561 -0.06781932 -0.056734417 0.101485685 0.08337418 0.0024124684 -0.036737524
-0.05935869 0.035810355 -0.07493454 -0.099617526 -0.0412687 -0.023777688 -0.034120325 0.016857684
-0.0883855 0.07338334 0.008741342 -0.07621552 0.00436277 -0.011902896 0.016435184 0.037665937
0.02340333 -0.0052572214 -0.041320402 0.030849116 -0.031425312 -0.045755103 -0.073016725 -0.07242364
-0.10347998 -0.11588851 -0.10632368 -0.035595953 -0.086303465 -0.06877175 0.045249507 -0.01594223
0.022625854 0.02596435 -0.0012158527 0.033402763 0.056328822 0.029104492 0.015556345 0.0038005367
-0.073672906 -0.0515993 0.022810182 -0.04458586 -0.083277926 -0.058793146 -0.10078575 -0.073351495
0.02421376 0.06926982 0.090074435 -0.025360674 -0.0028094433 -0.03355453 0.0059912684 -0.0838675
0.004208679 0.02056119 -0.04818473 -0.054763626 0.058803823 -0.0043939017 -0.011236253 0.082015626
-0.039512817 -8.025952e-05 0.09754647 -0.049746294 0.09415344 0.052874815 -0.067089275 0.050326593
0.018529262 -0.04623846 0.07637328 -0.050662603 0.019412726 0.008594626 0.07801487 0.012388108
0.027094603 0.04157869 -0.044890705 -0.033384033 -0.05852957 0.025298478 0.039684366 0.028473653
-0.010453368 -0.019081794 -0.052743852 -0.023356454 -0.011007974 -0.021349488 -0.12965521 -0.041391663
-0.069911435 0.010424457 -0.11818092 -0.11247126 -0.12163768 0.06111675 0.0049747266 0.08299011
0.05349369 0.042701602 -0.031752873 0.016036078 -0.00053168007 0.0022813852 0.001865048 -0.023192806
-0.15462103 -0.09443846 0.021831198 -0.13477428 -0.044596903 0.06415472 -0.02407365 -0.018407786
-0.08229326 0.036995422 -0.02259994 -0.042921405 -0.005050864 -0.023287185 -0.02762847 0.019529741
-0.008220033 0.08953659 0.090230316 -0.052729517 0.020909617 -0.05661574 -0.10258999 -0.014224848
-0.019264141 -0.002619087 -0.033872496 0.010164208 0.053546567 -0.10108413 0.092658214 -0.03537436
0.004524312 0.006455194 -0.0482625 0.012155923 0.10784711 -0.027624564 -0.10116433 -0.06765014
-0.1365056 -0.009957103 -0.08988757 -0.09299944 -0.03131201 0.054097775 0.045977928 0.06454872
0.024177196 0.0014313944 0.025347995 0.044103503 0.11735223 -0.029340753 -0.081524044 -0.05509317
-0.099172145 0.01615521 -0.032029502 -0.08661678 0.09266453 -0.068796664 -0.07264094 0.03604702
-0.015117094 -0.0429687 -0.058512095 -0.0046678036 -0.022654956 0.013488242 -0.061097804 -0.06316817
-0.0813918 -0.006041274 -0.10017121 0.029223682 0.051810198 0.0029732888 -0.026266001 -0.039691325
0.07514103 -0.044900347 0.010417597 -0.01924083 -0.06746679 -0.0010462337 0.018830493 0.019470531
-0.005884449 -0.004048036 -0.0012333117 -0.00593556 0.0005122859 -0.11420223 -0.16295771 0.0006626848
-0.050383653 -0.10135454 0.015670499 0.09423563 -0.035946574 0.010061919 0.13791774 0.071641564
-0.024288086 0.008757734 -0.060817733 0.0135681685 0.0026087612 0.04190386 0.052588917 -0.09404909
-0.03525842 -0.009511655 -0.08353128 -0.108445786 0.07002833 0.046982173 0.033646572 0.06007954

encoder_cnn.2.bias f4 [16]
00000000: fb72 9db6 f0c5 3237 c0de 20b3 bbd8 aaba
00000010: bf5d 5cb7 4af1 0eb5 78f5 fa37 2e1d 49bb
00000020: 8ddc 0ebb b85a d636 285d ffb6 fc70 a0bb
00000030: 78e1 0938 17dd 8fbb 92bd feb9 821f c1b6
-4.69235e-06 1.0655713e-05 -3.7455493e-08 -0.0013034561 -1.3134849e-05 -5.3250244e-07 2.9916628e-05 -0.0030687558
-0.002179894 6.388258e-06 -7.610437e-06 -0.0048962813 3.287333e-05 -0.0043903696 -0.00048587896 -5.755516e-06

encoder_cnn.3.weight f4 [16]
00000000: 6f98 713f ae9d 6d3f 458e 6c3f d41a 773f
00000010: bd59 753f ff90 653f 62a1 663f 42d6 6c3f
00000020: 4836 6e3f be3a 623f d722 723f c10f 723f
00000030: 94e7 6d3f 625c 653f 3f13 723f 64a8 693f
0.9437322 0.92818725 0.92404586 0.9652531 0.95840055 0.8967437 0.9009 0.9251443
0.93051577 0.88370883 0.9458441 0.9455529 0.92931485 0.8959409 0.9456062 0.9127257

encoder_cnn.3.bias f4 [16]
00000000: 4a80 473c 8325 c93b 1c89 77bb da6d 123c
00000010: 7c7e 083d b1e1 bebb c4e6 4b3c b94f 903b
00000020: 3311 1b3d 07e2 843c 9145 003d 5f5b f83c
00000030: df17 f33c 9ae2 57bc 8f1e 223c 9196 4f3c
0.012176583 0.006138505 -0.0037770933 0.0089373235 0.03332375 -0.0058252444 0.0124451555 0.004404035
0.0378582 0.01622106 0.031316344 0.030317007 0.029674469 -0.013176585 0.009894981 0.012670175

encoder_cnn.3.running_mean f4 [16]
00000000: 85a6 6bbe 71d5 503c e8a5 33be ec0b 8c3c
00000010: 3432 3e3e 3ae9 83bd be79 88be 1aaa 31bd
00000020: 8056 063e db91 a8bb 0094 593d 7c43 e03d
00000030: c53f 2e3d f0b5 85bb 51f2 96be bd93 a4be
-0.23012741 0.012746201 -0.17543757 0.017095529 0.18573838 -0.06440969 -0.26655382 -0.043375112
0.13118935 -0.0051443405 0.05311966 0.109503716 0.042541284 -0.0040805265 -0.29481748 -0.32143965

encoder_cnn.3.running_var f4 [16]
00000000: 1f00 de3c 3185 853c a960 113c 1337 193d
00000010: 00cf 853c f0f5 853c 992e 993c 7a1b ae3c
00000020: 08c5 593c 76da ad3c e2ff b33c 4f6a 923c
00000030: 4ae6 f93c 3906 8a3c 36c2 3d3c 8988 443d
0.027099667 0.016298862 0.008873143 0.03740604 0.016334057 0.016352624 0.018698977 0.021253336
0.013291605 0.021222334 0.0219726 0.017872958 0.030505318 0.01684867 0.011581948 0.047981773

encoder_cnn.5.weight f4 [32, 16, 3, 3]
00000000: 486c 543d fdf7 66bc 7a77 273d 4ca9 713d
00000010: ab73 ff3c 8a13 95bd 9139 123d 011d 033d
00000020: a93e 563d a634 8abd 555c f83c f014 7b3d
00000030: a399 82bd 0651 ddbb b398 0b3d 20ba 52bd
00000040: 627e f33c f06f b13c 8307 373c f075 923d
00000050: f551 763d 62f4 663d 1278 7dbc 216a 843d
00000060: ca9b 82bd eea6 01bd c27b 89bc 5a4c eabb
00000070: ddbc 7f3d 645d 933c 2bd8 9f3d 1336 7b3d
00000080: c5a9 46bd 0574 ebbc c3cb d1bc e3d1 21bc
00000090: e44a 4c3c 827a adbc 0cdf a3bb c50e ba3c
000000a0: 128c d1bc 8716 63bd d463 a13d e4dc 6e3d
000000b0: 0d4c 2dbc a1ab 7cbc 2978 56bd c472 afbd
000000c0: 6d67 25bc a2b4 1bbd 75eb 463d 802a 50bd
000000d0: acd4 77bb 2956 de3c b8d9 a43c b6e8 5d3d
000000e0: 33a5 e53c b8d4 9f3c a829 08bd f36d 15bd
000000f0: bf23 8fbd 961e f33c 9c04 993d da94 c4bc
00000100: 000d 08bc dff0 3bbd 02cc 1c3c 5ae5 3d3d
00000110: d12a 88bd 3c3a 66bd f7c2 843d 5e97 e63c
00000120: 326b 29bc 96b3 9e3c 35ee 43bb 37c0 9fbd
00000130: 62fa 65bd abd0 4f3d 6c0d b1b9 0437 31bd
00000140: a8c7 a7bc 6069 15bd 00d6 0abd 203f 8bbd
00000150: 5aef 2c3d 986a 753c 57f8 4cbd 5ec0 a2bc
00000160: 4d6a 7b3d 3e16 95bc dfc3 e93c 4766 323a
00000170: a872 86bd ec85 d23c 2b9f c3bb 1e6f 443d
00000180: 4edd f2bb 2886 5ebc 9046 623d 5d76 8ebd
00000190: 4322 3d3b 9184 963d 642e 55bd 2895 693d
000001a0: 2958 393d e2e5 833d 3223 1e3b 20ca 8e3d
000001b0: 3b1e e4bc ad9e 00bd 7195 05bb df88 3d3c
000001c0: 9e31 4a3d 2e38 793d fc27 a6bd 8100 26ba
000001d0: dbcc 10bb 06d0 513d 729c af3c f12e 1bbd
000001e0: ee75 27bd ed07 1a3d 1879 20bd bd5e 813c
000001f0: 2caf 5cbd e7a9 aebc e0ad a8bb ae1f a03c
00000200: 70d9 563b 04bc 693c 9b25 ae3c edda 843c
00000210: b7fb 853d e9a2 12bd de98 ca3b e0c6 32bd
00000220: 1c54 673d 4f52 4a3d f401 7abc 25fd 28bd
00000230: f4e3 4abd bb3a 693d 5413 943c 9385 813d
00000240: 160e 603d 0f8d 843d 1d4f 753d d05b 28bd
00000250: 47eb 013d 2171 bdb9 c8d1 3a3d 82a8 423c
00000260: e2b9 4f3c 4142 fabc e235 31bd b967 943c
00000270: f827 f93b 3ec1 b23c eaf8 573d 8988 7abd
00000280: 04a0 c53c c132 e9bc 4674 d03c 2a34 913b
00000290: 97fd 4a3d f170 973d 6003 913d 8257 ad3c
000002a0: 2269 4f3d 0d41 2ebd 125f 0dbd 4ad1 973c
000002b0: ba6d f8bb 5ef9 45bd 82c8 03bd c2f1 9abd
000002c0: 98ad cbbd f82e b93c 0bd5 393d 4cd5 4f3d
000002d0: 3fa3 8fbc cfff 90bd 53da 41bd 3366 1ebc
000002e0: bc39 653d aee9 5f3b 3336 60bd a126 96bc
000002f0: 51a9 58bc 58dc 81bd eb3c 7abd e10f 9b3d
00000300: 439b cebc b011 73bb d9fc 0bbd 1adf 8bbd
00000310: 6211 043c 5bc3 0abd 43fb c3bc 2534 a83b
00000320: 6e04 d6bb 1ece 94bd e1bf 303d 648b 993d
00000330: 13da 513d f7fc dfba b624 df3c 32d6 6abd
00000340: 1b02 7cbc d4c8 60bc 3578 97bc 6ecf d93c
00000350: 0f9b 22bb 665a 9f3b 4b52 49bc 56d7 85bd
00000360: 6b79 2d3c 1498 61bd 765d fe3c 19cc 853d
00000370: 2ae9 b73d cc6f b6bb b253 2eb9 35b2 013c
00000380: 3c49 903d 29bd 903d a21c eabc 9fb8 5abd
00000390: 0de3 94bd a590 02bd d4c3 8e3d 4d52 5f3c
000003a0: 3edb 813d fed9 673d 3057 99bb 5ac4 06bd
000003b0: bb33 9f3d 53de 213d 2d6f 153b 5b34 84bd
000003c0: 5732 ae3d e0eb 4fbb 1aea 033d a31f 073d
000003d0: 3a09 163d c12b 8abd 9f3d 21bd 3189 703d
000003e0: 2283 a13c 2d01 65bd cc64 823d 28aa 68bc
000003f0: b55f 6b3d 8546 8fbd cd89 973c 08bf d3bc
0.051861078 -0.014097211 0.040885426 0.058999345 0.031183084 -0.072791174 0.03569943 0.032010082
0.05230585 -0.06748323 0.030317465 0.061299264 -0.0637696 -0.0067540435 0.034081172 -0.051447034
0.02972335 0.021659821 0.0111712245 0.07151401 0.060136754 0.056385405 -0.0154705215 0.06465555
-0.06377371 -0.031653337 -0.016782645 -0.007150215 0.062435973 0.017988868 0.07804903 0.061330866
-0.04850175 -0.028741846 -0.025609856 -0.009876701 0.012469027 -0.02117658 -0.0050009545 0.02271212
-0.025579486 -0.055441406 0.07880369 0.058316126 -0.010577214 -0.015421779 -0.052360687 -0.08566812
-0.010095459 -0.03801406 0.048564393 -0.05082178 -0.0037815971 0.027140694 0.020123348 0.05417701
0.028032875 0.019510612 -0.03324285 -0.03648181 -0.0698924 0.02967767 0.07471582 -0.02399676
-0.008303881 -0.04588401 0.009570124 0.046361305 -0.066487916 -0.05620788 0.06482499 0.02814835
-0.010340499 0.019372743 -0.002989662 -0.07800334 -0.056146987 0.05073611 -0.0003377007 -0.043265358
-0.020480946 -0.036477447 -0.033895493 -0.067991495 0.04222045 0.014979027 -0.050041523 -0.019867118
0.061380673 -0.018199082 0.028535781 0.00068054016 -0.06564838 0.025698625 -0.005969902 0.047957532
-0.0074116355 -0.01358179 0.055243075 -0.0695617 0.0028859533 0.07349504 -0.052046195 0.057027012
0.04525009 0.06440331 0.0024129865 0.06972146 -0.027846446 -0.031401325 -0.0020383263 0.011568277
0.049363725 0.060844593 -0.08113095 -0.00063324725 -0.002209476 0.051223777 0.021436904 -0.037886564
-0.04088395 0.037605215 -0.039177984 0.015792245 -0.053877994 -0.02132125 -0.0051476806 0.019546356
0.0032783411 0.014266018 0.021258166 0.016217673 0.065421514 -0.035799894 0.006182774 -0.043646693
0.056476697 0.0493949 -0.015259255 -0.041257042 -0.0495338 0.056940775 0.018075623 0.063243054
0.054700933 0.06472217 0.0598899 -0.041103184 0.03171852 -0.00036133177 0.04561022 0.011880996
0.012678595 -0.03054917 -0.043264277 0.018115865 0.0076036416 0.02182066 0.052727617 -0.061165366
0.024124153 -0.028466584 0.025446068 0.0044312673 0.04955825 0.07394589 0.07080722 0.021159891
0.05063737 -0.042542506 -0.034514494 0.018532414 -0.00758144 -0.04833352 -0.03217364 -0.07565643
-0.0994522 0.022605404 0.04536919 0.050740525 -0.017533896 -0.070800416 -0.04732735 -0.009667921
0.055963263 0.0034166384 -0.05473919 -0.018328967 -0.013223962 -0.06340855 -0.061093252 0.07571388
-0.025220519 -0.00370894 -0.03417668 -0.068296626 0.008060785 -0.03387771 -0.023923522 0.0051331692
-0.00653129 -0.07265876 0.04315174 0.0749729 0.051233362 -0.0017088939 0.027239185 -0.05733318
-0.015381361 -0.013719756 -0.018489936 0.026588168 -0.002481166 0.0048630713 -0.012287687 -0.06535213
0.01058803 -0.055076674 0.031050425 0.06533069 0.089800194 -0.0055675264 -0.00016625112 0.007916023
0.07045218 0.070673294 -0.028578106 -0.053398725 -0.07269869 -0.031876225 0.06970945 0.013630462
0.06340645 0.056604378 -0.004679583 -0.0329021 0.07773539 0.039518666 0.0022801862 -0.064552985
0.08505695 -0.0031726286 0.03220568 0.032989156 0.036629893 -0.06746627 -0.039365407 0.058724586
0.01971585 -0.055909324 0.06366882 -0.014200725 0.05746432 -0.069958724 0.018498326 -0.025847927

encoder_cnn.5.bias f4 [32]
00000000: b05a acbc 8ca4 ed3c 348a 703d 4d29 183d
00000010: 2826 233d 413f 2c3d e3fd a63b f6bd ae3d
00000020: dfb7 8c3d a5a7 b83d 82b7 21bd 660d 3cbd
00000030: 030e 67bd 4bf3 5e3c 84ad 963d 4ef0 b7bc
00000040: 4bf0 ed3c 41d4 d53b 8bc4 91bd 7046 683b
00000050: 9b90 15bc 5c5b 9abc 6e0b 26bd a06e 773d
00000060: 3be4 f53b 53f2 533a 51a5 15bc 9bea 44bc
00000070: d2f0 09bc 8250 7dbc 15bd 363d 4d50 8c3b
-0.021039337 0.029009126 0.05872555 0.037148762 0.03983131 0.04205251 0.0050961836 0.08532326
0.06871008 0.09016351 -0.039481647 -0.045911215 -0.056409847 0.01360781 0.07357314 -0.022453453
0.029045245 0.006525547 -0.07117566 0.0035442375 -0.009128715 -0.018842392 -0.040538244 0.060408235
0.007504014 0.00080851204 -0.009133653 -0.012018825 -0.008419232 -0.015461089 0.044613916 0.0042820335

encoder_lin.0.weight f4 [128, 288]
00000000: b466 f5bc 6604 10bc 4dce 523d e3e4 a2bb
00000010: e3b8 a33c e147 363d 4d89 0ebd 66c2 03bd
00000020: c85b 543d 322d e4bc a6ff 74bd 5af1 723c
00000030: 47c4 c1bc 9dbf 163c 116f c93c 6cf9 e4bc
00000040: d952 c4bb cee7 003d e86a 263c a9b3 b2bc
00000050: 6e77 c13c a995 9d3b 4141 1b3c eebe 80bc
00000060: 4a03 bdbc 7b70 83bc 88e8 85bb 9e58 15bc
00000070: 9241 dfbc 855b 01ba e090 813c 3432 883d
00000080: 44b8 193d e466 80bb 07b9 173d 5bd6 4ebc
00000090: e9e0 4fbc 0abb 193d f749 aa3c e6d9 8fbb
000000a0: 8ebb b93c 9531 57ba 686d f73b c496 9fba
000000b0: b848 27bc a8d7 263c 529e 9d3b a82a 873b
000000c0: f1e6 12bc ee07 313d 2965 c8bc d494 4d3d
000000d0: 9af1 8f3c bf4c 6d3c da41 423d eefa 7ebc
000000e0: d293 75bc 1e01 d5bb f24f dc3a 5ba8 0fbd
000000f0: 66dd 373d 3ac1 95bc 20d5 293d 0ac6 a0bc
00000100: 5525 483d 8345 38bc 5367 a2bc 9cae 043d
00000110: 09ac 743d 400c 0a3c bc49 4e3d dfb2 5ebc
00000120: f3e4 61bd 605c c2bc b57c 873c 9bf8 663d
00000130: e11f 4abd 2384 8ebc 6ade 3b3d 803f 6f3b
00000140: 52a2 463b 1f5d 793d a51a 8c3c 37ce f4bc
00000150: 2cc0 443d cf1d d93c 5825 b9bb 8037 a7bc
00000160: e1f6 2ebd 70b9 d43c 94c9 223c cca8 babc
00000170: 29c8 773a f2bc 06bd d5ed 1a3d 4720 e7bb
00000180: 53b8 323c 63bd b6bb 2eff f63c 72cf a3ba
00000190: d782 d83b 4333 21bb b69c a9bc 5c76 28bc
000001a0: 4146 383c dcf7 6c3c c37a 9d3c 9bfb c1ba
000001b0: 2c29 30bc cc7f 54bd c4dd a9bc fdbd 803c
000001c0: a70b 463c 8568 b4bb b8a1 77bc 4d02 643a
000001d0: c8fa 9ebb 7dc3 e3bb d0d6 433c 7133 8e3c
000001e0: 7dca 1cbc 5eec 8f3c c68a 963b b8a9 ff3c
000001f0: 988f 793c e3a7 5ebb cea3 a4bc 6902 8f3c
00000200: 89ca b93c d01f cfbc e0ab 813c d310 c53c
00000210: 705b 143d 2df9 88bd fb2c 5b3c f15c ed3c
00000220: d638 caba 678f a63c 8da1 793d e463 d3bc
00000230: 48b1 cf3b 3ff0 0b3d aef0 2d3c 1176 93bb
00000240: 5d25 1e3b ab1f edbc e68b feb9 5220 e63b
00000250: 7653 c7bc b4cf f1bb 3ec2 c7ba 1a5e 493d
00000260: 94d7 7abc a9d2 0fbd 17e6 df3c 58c8 a0bc
00000270: 7ed6 a23a 1e7f 323d 3804 12bd bbc8 b43c
00000280: fe6e 033d 9fc2 9d3c 7f41 81bc bdcc 33bc
00000290: 9547 903c 6d89 37bc b0ab ca3c 7f97 e3bb
000002a0: fe74 33bc 9091 343c 670f 2c3c b8a5 f23c
000002b0: bd51 88bc 8608 32bd 5712 193d 3807 df39
000002c0: 9357 323d 07be 6abd 94ab 18bc 6044 6dbb
000002d0: 58ae 29bc f5ba 2d3c c924 e13c 97d3 a6ba
000002e0: f67f 603b d261 70bc a53f d539 b9a0 f0bc
000002f0: 041e 043a fece 9b3c b01b 57ba fcda 9dbc
00000300: 3a61 9b3d ab29 2a3d 726d 0a3d 235d 993c
00000310: e213 b5bc 3c3b 32bc 087e 143c f0e1 683c
00000320: 0665 5f3c fd76 e53b ceb5 0abc 49fb c33b
00000330: de4b 03bb 462e d9bc 3860 54bc 84c4 793c
00000340: 4177 113c 2ba6 143d c3fd c7bc 5f5f 4e3c
00000350: 92e4 98bc e1bd 203c 9724 263d 8459 1b3d
00000360: 8adf 7bbc 3c9d cdb9 5184 293d c0d3 813d
00000370: ddc2 04bd 27d5 a63c 31a8 153d 6852 84bb
00000380: daa3 ceb9 0bbc 723c 2ff1 313b bc7f 203b
00000390: 23a0 a5bc 12b8 b23c 0100 4a3c 9316 cdbc
000003a0: 135f 333a 4ce0 263c 8c9e e33c 9e29 58bc
000003b0: 734e 373b 3113 733a 9747 003c 6e8e 60bc
000003c0: 0de0 3a3b 014c c93c cae9 833c 1b45 9ebc
000003d0: 6651 133b 86fb 34bc 947b 643b 2a9d 7a3b
000003e0: 6ead 93bb 8063 a9bc 5a0e 673b 119d b73c
000003f0: a45a 203d 6ef1 bfbc 30ad c13c d316 29bd
-0.0299562 -0.008790111 0.051466275 -0.004971133 0.019985622 0.044502143 -0.03479891 -0.032167815
0.051845342 -0.027853582 -0.059814118 0.0148280505 -0.023653163 0.009200958 0.024589093 -0.027950965
-0.0059913215 0.031471066 0.010157324 -0.021814184 0.023616519 0.0048091006 0.009476007 -0.015716042
-0.023072857 -0.016044846 -0.004086558 -0.009115366 -0.027252946 -0.0004934597 0.015816152 0.066502005
0.037529245 -0.0039185155 0.03704169 -0.0126243485 -0.0126879 0.03753189 0.020787222 -0.004389989
0.02267244 -0.00082089874 0.007550884 -0.0012175669 -0.010210209 0.010183252 0.004810133 0.004124958
-0.008966194 0.043220453 -0.0244623 0.05019076 0.01757126 0.01448363 0.047426082 -0.015562756
-0.014988856 -0.0065003773 0.0016808494 -0.035072666 0.044888876 -0.018280614 0.041463017 -0.019625682
0.048863728 -0.011247042 -0.01982466 0.032393083 0.059734378 0.008425772 0.050363287 -0.013592451
-0.055149984 -0.023725688 0.016538957 0.056389432 -0.04934681 -0.017396992 0.045866407 0.0036506355
0.0030309153 0.060879823 0.017102549 -0.029883487 0.048034832 0.026503472 -0.0056502037 -0.020412207
-0.04271591 0.02596733 0.009935755 -0.022785567 0.00094521284 -0.032895036 0.03782447 -0.0070534083
0.010908204 -0.005576776 0.030150976 -0.0012497737 0.006607394 -0.0024597205 -0.020704608 -0.010282125
0.011247219 0.014463391 0.019223576 -0.0014799716 -0.010752004 -0.05187969 -0.020735629 0.015715593
0.012087739 -0.0055056238 -0.01511424 0.00086978526 -0.004851673 -0.0069507943 0.011953071 0.017358514
-0.009569761 0.017568763 0.00459418 0.031208858 0.015231989 -0.003397458 -0.02009764 0.017457204
0.022679584 -0.025283724 0.015829027 0.024055874 0.036220014 -0.066881515 0.013377423 0.028974982
-0.0015428315 0.020332051 0.060945082 -0.025804467 0.0063382722 0.034164663 0.010616465 -0.0045001586
0.0024131157 -0.028945765 -0.00048550888 0.007022896 -0.02433179 -0.0073794965 -0.0015240384 0.049162008
-0.015310187 -0.03511301 0.027331395 -0.019626781 0.0012423543 0.04357826 -0.035648555 0.022068372
0.032088272 0.019257842 -0.015778301 -0.010974106 0.017612258 -0.011202198 0.02474007 -0.00694555
-0.010953186 0.011021033 0.010501719 0.029620036 -0.016640538 -0.04346516 0.037371006 0.00042539253
0.04354055 -0.05731013 -0.009318251 -0.0036204085 -0.010356508 0.010603656 0.02748336 -0.0012727854
0.0034255958 -0.01467176 0.00040673945 -0.029373514 0.0005039873 0.0190196 -0.0008205725 -0.019269459
0.07586904 0.041543644 0.03379578 0.018721169 -0.022104207 -0.01087838 0.009063251 0.014214024
0.013634926 0.00700271 -0.008466197 0.0059808833 -0.0020034234 -0.026511323 -0.012962393 0.015244607
0.00887853 0.036291283 -0.024412995 0.01259598 -0.018663678 0.009810896 0.04056224 0.037927166
-0.01537312 -0.00039217796 0.041385952 0.06339216 -0.0324124 0.02036531 0.036537353 -0.004038144
-0.0003941346 0.014815341 0.0027151813 0.0024490198 -0.02021796 0.021816287 0.0123291025 -0.025035178
0.0006842475 0.0101853125 0.027785562 -0.013193516 0.0027970343 0.0009272574 0.007829568 -0.013705833
0.0028514892 0.024572374 0.01610269 -0.019320061 0.0022478937 -0.011046296 0.0034863697 0.003824065
-0.0045067584 -0.020677328 0.0035256357 0.022413762 0.03914894 -0.023430552 0.023642153 -0.041281532

encoder_lin.0.bias f4 [128]
00000000: 29a5 433d f62b 0ebc 62f7 debb dbc8 0cbd
00000010: e73e 3cbd 4599 44bc 283a b6bb 62d0 953c
00000020: 1f69 8d3d 505a cd3a 34ab 9cbc a26d 6a3c
00000030: 7205 0c3c 5160 d83b 87b6 cb3c 5ee0 763c
00000040: 3116 003d 73bf 82bb d1d1 74bd adeb 16bd
00000050: d76d 9ebc 00b5 fe3c 68c6 2a3d 2b5b dbbc
00000060: 44a2 80bc 7702 ac3c d3e6 723d 5ee1 b7bb
00000070: 3823 cb3c 1f7e 493d a271 7c3c c5bb 493b
00000080: baf5 3c3d a4ea 5bbd f4c5 f9bc 99f1 f6bc
00000090: e0a9 1bbd 1908 8c3b d117 c43c 5f89 70bc
000000a0: 40e8 373d 182f a93b 4ea6 1f3d ee47 ce3c
000000b0: 4752 e5bb 387c 2abc 5dc3 aabc 0279 d33c
000000c0: c3dc 483d d9b2 e33c 4fce a7bc f0bf 37bd
000000d0: 31a4 b1bc b039 813d 44b1 c5bc 6e76 ce3c
000000e0: 2348 433c 8ee7 193b 9d0d 21bc 4943 15bd
000000f0: c428 2fbd 077c a33c fd2f 32bd a0f6 f9bc
00000100: 646f 78bd 8d0e babc 6e4c 363d f9c2 473d
00000110: 8fb8 cf3b c03e 4cbd 50d7 583d 2176 833c
00000120: 22bb 1e3d a150 3dbd 8980 69bb 873a 853c
00000130: 30d7 593d 5808 11bd d848 1cbb 9c5d 96bc
00000140: dbbc 3fbc e912 21bc 9b30 0cbd 4abe 583d
00000150: a651 133d 3456 0e3d 5441 b0bc 5395 ba3c
00000160: 6044 53bd fee3 903c 38c1 b93b 2f28 b8bc
00000170: 44ba 013d 3f66 0abd 3b9d 43bc 1f3d 833d
00000180: 5773 d43b 3fd6 0b3d 4795 663d d508 863c
00000190: d01a cabb 8962 453c ebce 833c 01ae 42bd
000001a0: 3ff6 39bd aab8 513d fd29 98bb 9683 e13c
000001b0: 08e5 fe3a 54b8 833d c99c 263d 6f2c 41bc
000001c0: 28d1 753c f406 f53c 4096 0b3d f5f2 433c
000001d0: a851 363c 7f2b 303c 02a4 76bb 4135 0dbd
000001e0: 7831 40bd 6e0c 8cbc f381 81ba 9580 953c
000001f0: f7c7 c33b 78a2 efbb fa8e 50bd 564a 17bd
0.04776493 -0.008677473 -0.0068043927 -0.03437124 -0.045958426 -0.011999433 -0.005561132 0.018287841
0.06904816 0.0015667174 -0.019124605 0.014308365 0.00854622 0.0066032787 0.02486731 0.015068142
0.031271163 -0.0039901077 -0.05977041 -0.03684585 -0.019339485 0.031092167 0.04169312 -0.02677687
-0.015702374 0.02099727 0.059302162 -0.0056115827 0.024797067 0.049192544 0.015407952 0.0030782085
0.04613278 -0.053690568 -0.0304899 -0.0301445 -0.038003802 0.0042734263 0.023937138 -0.014681189
0.044899225 0.0051630847 0.03897696 0.025180783 -0.0069983336 -0.010405593 -0.02084511 0.025814537
0.04903866 0.027795242 -0.020484118 -0.04486078 -0.021684738 0.06309831 -0.024132378 0.025202956
0.011919054 0.0023483965 -0.009829906 -0.03644112 -0.042763487 0.019956602 -0.043502796 -0.030513108
-0.060653105 -0.022712016 0.044506483 0.048769925 0.00633914 -0.04986453 0.052939713 0.01604754
0.038752683 -0.04621947 -0.0035629591 0.01626326 0.053183734 -0.035408348 -0.002384713 -0.018355183
-0.0117027415 -0.009831169 -0.03422604 0.05291585 0.035966538 0.03475018 -0.021515526 0.022776281
-0.05157888 0.01768684 0.0056687854 -0.022480099 0.031671777 -0.033788916 -0.011939342 0.06408142
0.006483476 0.034139868 0.056294706 0.016361633 -0.006167747 0.012047418 0.016089877 -0.047529224
-0.045400854 0.0512015 -0.0046436773 0.027528565 0.0019446919 0.06431642 0.040676866 -0.011790379
0.01500348 0.029910542 0.034078836 0.011959781 0.011127867 0.010752558 -0.0037634377 -0.034474615
-0.046922177 -0.01709577 -0.0009880647 0.01824979 0.0059747654 -0.007313069 -0.050917603 -0.036936127

encoder_lin.2.weight f4 [12, 128]
00000000: f0bc 183d 96d7 7a3c 386c f7bb 9696 443d
00000010: abc0 fa3c bb2d 96bd aa67 bc3b e968 343c
00000020: 54d0 a03d e8b6 94bb 6415 17b6 e4b4 893d
00000030: a1b3 41bd fccb 83bd 5432 15bc 3ae2 313d
00000040: 7ec0 2abd f1f9 99bd c9b5 c73b 9ed4 35bd
00000050: f96a 46bd 8ebc c0bc 20a3 9c3c 8477 263d
00000060: 8e7d bd3c f6f7 8ebd 9b96 1f3d 00a5 633d
00000070: 2932 9e3b 2743 823d 29b7 4cbd a1cf 58bd
00000080: 7b0b 90bd 2b98 49bc cea7 be3b 4ce9 103d
00000090: 63c5 12bd fbf9 743d 2e20 53bd 1524 c6bd
000000a0: 6a62 9c3d a228 873d 9333 713d 23bf 533d
000000b0: 1c12 50bd cc53 17bd 2bbf b0bd 6319 953d
000000c0: 345d da3c c99a 80bb 890b 4d3b 4689 ffbc
000000d0: c8f4 0c3d 7b0a 89bd 6d36 c93c d6b9 31bd
000000e0: 828d 953d f46a 38bd 1eb1 993b 8779 d63c
000000f0: 27d1 e7bc bc49 dcb9 6e2e b2bc cda6 66bd
00000100: 151a bbbc cea5 37bb d143 a5bd d2f4 b83d
00000110: 23c7 493d 824b 873d 7bd3 84bd f7df 97bc
00000120: f25a 033d 7ad3 f0bc fbff 1e3d 0fc8 0fbd
00000130: 35dc 953d 8427 f1bc 2966 2fbb 3a1a f0bc
00000140: 789f 17bd 7327 efbb 4cfb aebc 148d 1ebd
00000150: a984 803d de7c c53c 01b6 3f3d d985 26bc
00000160: 1977 53bd 256f 423d 28f6 513c 5fb3 2c3d
00000170: 2967 d43c 37df 4d3d cb2c 613d 9c5a e53b
00000180: 00eb 64b9 6c01 bbbc 83b8 bc3c 0b64 9d3c
00000190: 595d 8fb5 aa06 433d 3ffa cfbc 3f0f acbc
000001a0: 865c 7b3d fe37 483d 586d 33bd 5fa7 d1bc
000001b0: 13ba 813d cf55 8c3c 5360 55bd 5f53 d4bb
000001c0: 831d 553d 9811 92bd 33f4 91bb ae97 77bd
000001d0: 382b 433d 59f7 4fbd ac4e 20bc 3cf9 55bd
000001e0: 35af 26bd 7e78 3e3d 4666 8639 6ff7 2bbd
000001f0: f778 b43c 2c02 89bc 710d 433d 189a 46bd
00000200: d930 a3bd d5de d6bc fbef 67bc f346 80bd
00000210: 420f b4bb 46c0 59bd 04ba c1ba 59ae 693d
00000220: d8f0 53bd 4647 7ebd c037 7fbc 8557 d9bc
00000230: 2120 b3bc 7882 833d c42d d23c 74f6 1dbd
00000240: 500c c7bc 1dc6 1b3d 72a7 2b3d 8b5c 133d
00000250: 6d30 603d 75bf 89bd aac7 063c e4df 893c
00000260: 2452 adba b766 74bd 31b1 ae3d 019b 9dbc
00000270: f457 f5bc fe3c 953c 5573 753d 30db 7dbd
00000280: 48da 94bd d9aa 7b3d 9e30 34bd b4b4 4d3d
00000290: 3c9e 6cb7 cc84 263d b72e afbd 794d f63c
000002a0: 197f 2b3d 259d c0bd 1867 a93c d996 313d
000002b0: 9558 2c3c 59d6 babb 717f 1b3d 110e 0f3d
000002c0: c135 77bd ec26 093d 7cd0 74bc 95f2 6dbb
000002d0: cd25 05bd 984e b5bd 738a bfbc c4a5 883c
000002e0: e208 c43d 30ad a0bc 29d8 b8bb 302b 1d3c
000002f0: 9046 ab3c 18c0 993d 547e 88bc fc6f 073d
00000300: 2a02 5a3d 82fc 963c d9e7 853c 6d51 80bd
00000310: 8d11 263c 15a4 073d 543e e8bc 9b06 06bd
00000320: 4b6d 0c3d 0e82 773c c460 85bd bbd7 203d
00000330: add3 5c3d ff8e 403c 871d 553c 5fe8 89bd
00000340: 4f6a 723c 395f 0fbb 832d 9dbd 9467 b83d
00000350: 673c c4bb 3fb9 3bbd 7922 eabc 0b96 0ebb
00000360: 3fea 8fbd b854 093d 94d2 103d f8c6 e2ba
00000370: 3e29 28bc bc77 bfbd f288 d0bc 14dc c4bd
00000380: b827 213c e915 f13b d77c 55bd a7e8 a33c
00000390: 36e9 69b9 15f0 f83a feae 3a3c fadc 663d
000003a0: b31e e6bc 5fb0 523d 38d1 d2bb a8eb c93c
000003b0: 1282 ad3d b01a 27bd f42b 70bd da3c 86b9
000003c0: 1265 b53c bc3f 35bd 1f2e 0e3d a0c3 783b
000003d0: 4f46 b4bc 9e5f d13c 1be1 4d3d 91d7 3e3d
000003e0: 2647 24bc a767 cd3c 2d41 08ba 4492 5dbd
000003f0: 0464 adbc af3c 00b9 d37f 3b3d 43b4 81bc
0.03728956 0.015310189 -0.0075507425 0.047995172 0.03060945 -0.07332941 0.0057496624 0.011011341
0.078522354 -0.0045384057 -2.2513204e-06 0.06723955 -0.047290448 -0.06435391 -0.009106237 0.043428637
-0.04168748 -0.07518376 0.0060946685 -0.04439222 -0.04844186 -0.02352741 0.019120753 0.040641323
0.023131158 -0.069808885 0.038961988 0.055577278 0.004827757 0.063604645 -0.049979363 -0.052932385
-0.0703344 -0.012304346 0.0058183437 0.03537874 -0.035832774 0.059808712 -0.05154436 -0.09674851
0.076359585 0.06599547 0.058887076 0.051695954 -0.05079852 -0.03694515 -0.086302124 0.07280233
0.02665577 -0.003924702 0.0031287393 -0.031193387 0.03441313 -0.06691452 0.024562085 -0.043390118
0.07302381 -0.045023873 0.0046903035 0.026180996 -0.028297974 -0.00042016606 -0.021750655 -0.056311417
-0.022839585 -0.0028022411 -0.080695756 0.09031071 0.049262177 0.06606199 -0.06485649 -0.018539412
0.032069154 -0.029397715 0.03881834 -0.0351029 0.07317392 -0.029437788 -0.0026763773 -0.02930938
-0.037017316 -0.007298404 -0.021360062 -0.03870876 0.06275303 0.024107393 0.04680443 -0.010163748
-0.051627252 0.047469277 0.012815036 0.04216325 0.025928097 0.050261702 0.05497436 0.006999327
-0.00021831319 -0.022827826 0.0230372 0.019212743 -1.0681498e-06 0.047613777 -0.025387881 -0.021003364
0.061367534 0.048881523 -0.04380545 -0.025592504 0.06334319 0.01713076 -0.052093815 -0.006479665
0.052030098 -0.07132262 -0.0044541596 -0.060447387 0.04764864 -0.050773 -0.009784382 -0.05223964
-0.040694434 0.04650163 0.0002563467 -0.041984018 0.022030337 -0.016724668 0.04762024 -0.0484868
-0.07968301 -0.026229301 -0.014156337 -0.062635325 -0.005494983 -0.053161882 -0.0014780168 0.057051037
-0.05174336 -0.06207969 -0.015577257 -0.02653099 -0.021865906 0.06421369 0.025656588 -0.038565114
-0.024297863 0.038030732 0.041907735 0.035976928 0.054733682 -0.06725971 0.008226315 0.016830392
-0.0013223332 -0.05966827 0.0852989 -0.01923895 -0.029949166 0.01821756 0.059924442 -0.06197661
-0.07268196 0.06144223 -0.043991677 0.05022116 -1.4103538e-05 0.04065399 -0.08553832 0.030066239
0.041869257 -0.09404973 0.020679042 0.04335675 0.0105191665 -0.0057018218 0.037963334 0.034925524
-0.060353998 0.033484384 -0.014942285 -0.003630792 -0.032506753 -0.08852881 -0.023381447 0.016680606
0.09572007 -0.019613832 -0.0056410027 0.009592816 0.02090767 0.07507342 -0.0166618 0.03306578
0.05322472 0.018430952 0.016345905 -0.06265531 0.01013602 0.033115465 -0.028350033 -0.032721143
0.034283917 0.015106691 -0.06512597 0.039268237 0.053912807 0.011752843 0.013007528 -0.067337744
0.014795854 -0.0021876825 -0.07674696 0.09004131 -0.005988646 -0.04583096 -0.028580891 -0.0021756913
-0.07027101 0.03352806 0.035357073 -0.0017301729 -0.010263739 -0.093490094 -0.025455926 -0.09612289
0.00983613 0.007357348 -0.05212101 0.020008398 -0.0002230749 0.0018992448 0.01139426 0.056363083
-0.02809081 0.05143773 -0.006433632 0.024648502 0.084720746 -0.040796936 -0.058635667 -0.0002560381
0.02214292 -0.044250235 0.034711953 0.0037958398 -0.022006182 0.02555829 0.050263505 0.0465923
-0.010026729 0.02507384 -0.00051977 -0.054094568 -0.021165855 -0.00012229638 0.0457762 -0.015833026

encoder_lin.2.bias f4 [12]
00000000: 5e1f 88bc f4e0 e93a 16d1 7d3d 7a40 743c
00000010: dbc5 0e3d f815 af3c 289e a2bd 91b9 bd3d
00000020: b973 cbbd eae2 213d 906b a5bd 3956 84bd
-0.01661652 0.001784353 0.061966978 0.014907951 0.03485666 0.02137278 -0.07940322 0.092639096
-0.09934182 0.039523043 -0.080771565 -0.06461758
